checkpoint_actor.pth (torch_old, 291791 bytes, 6 tensors)

fc1.weight f4 [256, 24]
00000000: dbfb b33e a0f5 f1bd 966e efbc ba3b 88bd
00000010: d62a 4cbe cb02 da3c 5c23 d33c 4abd 94bd
00000020: 7e72 9c3e 77da 653d 805c 4cbd a884 1d3d
00000030: 842c 6dbe 97b3 93be a12e 1fbc 3ae8 26bd
00000040: e2fd aa3e aeec 383d 014a cd3c f6a1 da3d
00000050: ebbc e4be 88b0 1bbf 32e4 8f3d b6ba cd3d
00000060: cfeb c9bd 1f31 533d c1c0 81bd 0a5b a7bd
00000070: f77d 41be 5884 03be 8269 b83c 85a4 2bbe
00000080: c0d3 0cbd 7b3e cabd 2ace 9cbd 1cc9 98be
00000090: b7e0 1d3e 1996 653e 714f fbbc 76ce 99be
000000a0: c5df debd d23a 57be 25d6 5bbc 5dcf e3bd
000000b0: c579 d33e c9a7 f93e aa1e ea3c 8e86 2dbe
000000c0: 4dd3 933d 1be0 ea3d 673a b23c ac10 58bd
000000d0: 6ea6 453e 1875 23bf 84db 91bb cedb 333d
000000e0: 4fae fd3d a145 1c3e a55b b53d 40ff 5ebd
000000f0: bcf5 5fbd 774c bdbe 1dd8 0a3e 5982 c8bd
00000100: 85e2 1b3e 81da 6a3e 25f3 39bc d046 fbbd
00000110: 73b0 c9be fff8 103d 4498 b93c cbce 89bd
00000120: d4ff 9b3d 8853 79bd 528d b13c c449 0ebe
00000130: f736 bfbc 23e2 a3be 08b4 dcbc a462 02be
00000140: 9ebb 91bd b816 43be 0daa dc3c a6a0 253d
00000150: bfab 23ba de25 933e 89c1 8fbd 01ce 9bbc
00000160: 0980 c0bd 580d 81be 2104 d6bc d811 0a3e
00000170: ada0 abbc a3d9 6e3f 53f9 f13b 8a0c f53d
00000180: 017b fb3c 2193 14be f319 aabc 7a8a 90bd
00000190: aaef 0b3e 9d02 303e 5647 fabc 5f72 c8bd
000001a0: 9be2 b9bc 383d 09be 9d1e 523c 5a14 f0bd
000001b0: 1cdd af3a cee9 2e3e 9bee 8cbd 902f c5bd
000001c0: 176b 2ebd 9d50 3dbe a960 94bc 00a4 bfbd
000001d0: 5399 a4bd 8999 2b3e 317c fbbb f064 f9bc
000001e0: 0b9e a9bd 4736 cb3e 5591 fabc f142 933d
000001f0: 5019 3abe 4a62 123d 2d1d 7e3d bd72 893d
00000200: c49a 08bd 8901 f13e d8b3 82bd d802 0fbb
00000210: 886b 9b3d 769e 343e e233 52bd e250 e3bc
00000220: 6250 17bd bf08 d13e 3351 07bd f519 0abe
00000230: f015 a43e 49da fb3e 1591 713d 1283 e4bd
00000240: 847b 043d d9bb 0d3e 8187 8c3d fc77 0fbe
00000250: 08db ba3e 7477 57bb 930d b0bc 7eca 12be
00000260: 688b 9ebc 1400 283e 8681 e4bc 801f 453d
00000270: ec8e 7c3d dba5 733e 981a c63c b2ee 223d
00000280: 7179 3fbe c337 273e d735 95bc 27ba 30bc
00000290: 21dc 6cbe c5a2 e43e c667 7dbd 8af0 b0bb
000002a0: 853d 033e 3032 8d3d 493d 97bb 0b05 57be
000002b0: 994e 37be 4cae ac3d f5c3 893d cf7b 3bbe
000002c0: 08fb 853c ce18 bf3d 2b35 073c c71b 51be
000002d0: 5af4 d93d 7d0a 713e 4d5e 3dbd 094c 4ebe
000002e0: d6ae 76bc 83df 913d c05c a2bc b0df 2d3e
000002f0: a2f9 053f 772c 093f 252c ebbb 72a7 293e
00000300: 48ed c23e c748 613f 9331 943c 56ad f63d
00000310: a33d c4bb 5aba 063e 5e64 52bc cc59 1c3e
00000320: e2e9 cb3e 453a 643f 254b c93b 3d3b 8fbd
00000330: 5b90 83bc 7cbe ee3d e800 863d 48b9 19bd
00000340: 475d ca3e aa83 2e3f c4e0 7d39 b5f7 98be
00000350: fb45 43be 09ee 2d3e 8ce4 da3b cbb7 a1be
00000360: c0e5 a33e 2b9d c33e 0a1f 453d ee69 283d
00000370: 1504 0b3f 3701 09bf 2d9b 183c 848f fcbc
00000380: 618a da3e 57b1 cc3e 2f5b 993d 1ccb ee3d
00000390: 45ed 1c3e 049b 6bbe 5c38 453d 77fa 323d
000003a0: 3d8f aa3d 98b6 ea3e 49ac 1fbd 2533 1fbd
000003b0: dfdb a2be 45db b83e 0e16 66bc d168 72bd
000003c0: 4f5a 5b3e 0551 bc3d ed17 483c 69a5 27bd
000003d0: 701f 503e 57f3 4dbe 0404 78bd ded3 f2bd
000003e0: 77c7 3e3e b6aa 003e a4f9 0fbe 0337 21bd
000003f0: 9c4b 983d ac41 bbbe f71c bbbd 245c 403b
0.35153088 -0.118144274 -0.029227536 -0.06652017 -0.19938216 0.02661266 0.025773697 -0.072626665
0.305561 0.056116547 -0.049892902 0.03845659 -0.23161513 -0.28847954 -0.009715707 -0.040748812
0.33396822 0.04514759 0.025059702 0.10675423 -0.44675383 -0.6081624 0.07025947 0.10045378
-0.0985943 0.051560517 -0.06335593 -0.08171661 -0.18895708 -0.12843454 0.022511248 -0.16761978
-0.034381628 -0.098751985 -0.0765651 -0.29840934 0.15417753 0.22420539 -0.030677529 -0.3004033
-0.108825244 -0.21018532 -0.013417755 -0.11123536 0.4130384 0.48760822 0.028579075 -0.1694586
0.07218037 0.11468526 0.021756364 -0.052750275 0.19301769 -0.63850546 -0.004451217 0.043910794
0.12386762 0.15260936 0.088553704 -0.054442644 -0.05467771 -0.369724 0.13559003 -0.09790487
0.15223129 0.22934915 -0.011349474 -0.12269366 -0.39392433 0.03539371 0.022655614 -0.06728896
0.07617155 -0.060870677 0.021673832 -0.13895327 -0.023341639 -0.32008466 -0.026941314 -0.12732941
-0.07115863 -0.19051635 0.026936555 0.04043641 -0.00062435487 0.28739828 -0.07019336 -0.019019129
-0.09399421 -0.25205493 -0.026125016 0.1348337 -0.02095064 0.9330084 0.007384458 0.11965282
0.030698301 -0.1450925 -0.020764327 -0.07057662 0.13665643 0.17188497 -0.030551594 -0.097874396
-0.022691062 -0.1340226 0.012824682 -0.11722632 0.0013417336 0.17081377 -0.06881448 -0.096282125
-0.042582598 -0.18487783 -0.018112497 -0.093574524 -0.08037057 0.16757788 -0.007674717 -0.030443639
-0.082820974 0.39689848 -0.030586878 0.071905024 -0.18173718 0.035738267 0.062039543 0.06711338
-0.03335072 0.47071484 -0.06381959 -0.0021821763 0.07588869 0.17638573 -0.05131901 -0.027748529
-0.036941893 0.40826985 -0.033036422 -0.13486464 0.32047987 0.49189976 0.05897625 -0.11157812
0.032344356 0.1384119 0.06861783 -0.14010614 0.36495233 -0.0032877596 -0.021490848 -0.14335057
-0.019353583 0.1640628 -0.027893793 0.048125744 0.06165974 0.23793738 0.024182603 0.03977842
-0.1869867 0.16329865 -0.01821415 -0.01078657 -0.23130848 0.44655433 -0.061866544 -0.0053997682
0.12816437 0.06894338 -0.00461546 -0.20998017 -0.17901076 0.08431682 0.06726829 -0.18308948
0.016355053 0.09330903 0.008252422 -0.20420752 0.106423095 0.23539157 -0.04623251 -0.20146193
-0.015056333 0.071227096 -0.019819617 0.16979861 0.52334034 0.5358347 -0.0071768933 0.16567782
0.38071656 0.88001674 0.018090045 0.1204478 -0.005988793 0.13157025 -0.012841312 0.1526863
0.39826876 0.8915141 0.006142991 -0.06993721 -0.016060045 0.11657426 0.065431416 -0.037530214
0.3952429 0.68169653 0.00024211692 -0.29876485 -0.19069664 0.16985334 0.006680077 -0.31585535
0.32011223 0.38205847 0.048125304 0.041116647 0.54303104 -0.5351748 0.009314341 -0.030830152
0.426837 0.3997905 0.07488095 0.11659834 0.15324886 -0.23008353 0.04814945 0.043695893
0.08328102 0.45842433 -0.038982663 -0.038867135 -0.31808373 0.3610479 -0.014043344 -0.059181992
0.21421169 0.09195141 0.012212736 -0.04092923 0.20324492 -0.20112358 -0.060550705 -0.11856817
0.18630777 0.12565121 -0.14060074 -0.039359104 0.07436296 -0.3657354 -0.09136384 0.0029351795

fc1.bias f4 [256]
00000000: 4e7c 163e 39ce 803e 683d 30be 3d69 6a3c
00000010: a049 b9be fdb4 8ebd b517 09bc 2850 59bd
00000020: 3fc9 113c 359f 2f3e 6a72 773e 7f4a 42be
00000030: 8f02 35be 5a69 91be 2902 2b3e 9bcb d3bd
00000040: 9722 0abd bba0 4cbd 9443 62bd ebaf f6bd
00000050: 76c9 3dbe 30d2 bd3d 0c73 00be 38d0 ad3e
00000060: 4305 5f3e f5cd a8bd fe29 dbbd 8d07 8c3d
00000070: 9d58 f3bb b13a 3dbe d3fc 91bd 1e77 fdbd
00000080: 2799 e4be 88de c9be d2e5 a0bd 17bc 53be
00000090: 12e0 a4be 1dab 8e3e 06af 3cbe 73b5 6dbe
000000a0: 2375 5cbe 60f4 12be 71e7 103e e052 40bc
000000b0: be37 27be 36a3 cf3d 759a e2bd 3247 abbe
000000c0: 7000 5bbc 4794 22be c312 bcbd 8bec a7bc
000000d0: d603 81bd d18c 22bd bd49 bebd e3b0 673e
000000e0: f69c c63d 9895 343d eddd bb3e c88c f7bd
000000f0: 770d d03d 1e9b a4bc ac24 25bd f0be 1e3e
00000100: 0cea 56be bb9a 4fbe 3bb2 21bd 4691 0fbe
00000110: 83d9 d1bd a76d 263d 9f53 6dbe 6c60 363d
00000120: 44ec b7be 0e1c 95be e6fe 68be b496 783e
00000130: 1090 813e 08a0 f1bd 5349 bb3b a412 a63b
00000140: ca4f 71be 8531 c7be 8a24 473d 51ff 8ebc
00000150: 2a2f 403d c0dd a4bd adac 9cbc effb d1be
00000160: 8c94 adbd 2efb 6fbe f359 88bd 3639 3fbd
00000170: 26f7 4dbe 9f14 773e 7aaf 97be 025f 8d3d
00000180: ef54 913e c7ed ad3d e9d4 7d3d a928 4cbe
00000190: 6b44 8c3d 5ff4 b63d f3f2 13be 50e9 903e
000001a0: 2e67 4abe 5717 28be b5c8 13bd 1e76 7a3a
000001b0: 4acd d1bb 80a5 c1bd 6b70 1ebd be19 99be
000001c0: e3d3 3fbe eebf 85be dd0e 803b c7ce 48bd
000001d0: a7da c4be 7c7a 2bbc 6ec7 953e 642e 943e
000001e0: 91d5 e2bd c3f9 b53d f0b2 c9bc e5e2 b1bd
000001f0: 8d27 a13d 7210 e0be 3c13 103e 5335 2e3d
00000200: 41f7 613d 2b85 d33d e67e eb39 5685 3ebe
00000210: ce39 8dbd cda7 9d3d 5598 00be 74b0 013e
00000220: 2b24 84bd ec0d 293d ec6e a53d c809 143d
00000230: d84a 863d 4d03 c3bc f4d7 8d3d e80f 3a3e
00000240: 6508 22bc 6742 103e 155e 87bd f201 da3d
00000250: 2bdf f73d 8096 1c3e 671e 1f3e 8e5e a6be
00000260: 654c 4f3d 3143 6c3e ca4e 9fbc b177 3dbe
00000270: 045c 00bd 5894 823e 5f2a 4b3e 8179 1fbe
00000280: 18c5 443e 957a 26be 5f0c 20bc 188b b13d
00000290: b5ce f33d 461a a4be 279d 93bd e0dd c8bd
000002a0: 51e9 0bbe b555 56be d46a 3f3e 95c2 1ebe
000002b0: cef4 15be c494 cabe b7c2 073e 6328 a3be
000002c0: ea7b 1abd 4617 d5bd dea9 dfbe 502f 323e
000002d0: a859 463e 6b68 d9be a700 543e a49d e2be
000002e0: c154 c6be 77ae 06be 2b3a 12bc fc9a 30be
000002f0: cdbf cd3d c874 05be 8fad ad3d 47ef 34be
00000300: cc78 5ebe bdc5 f1bc 87f6 aabd 99a1 b6bc
00000310: 4a6b 293c 87ea 8fbd 9dae 8ebe 0d3f 983e
00000320: 87bc 23be 87d4 9bbe c806 2d3d 2be5 ffbd
00000330: 0f27 b3bd 70b7 e73d a262 493e 5f8d c3bd
00000340: e0bd 3b3d a58d 0dbd 067f 0ebe b33e 95bd
00000350: a939 1fbe aa89 c0bb 22cb debd 5ad0 743e
00000360: cb20 64be 6dee 34be f931 5bbe 52b3 613e
00000370: 2bce 0dbd 9b6f ab3d 451b 063e cd53 a8be
00000380: 10bf 633e c1bb a53c 809d 26be a90b 5b3e
00000390: 595c 433a 9fe9 5ebd a865 7ebe 4126 f0bd
000003a0: 0944 9e3d a7db 9ebd 605f cb3d 42c8 7bbe
000003b0: 9a28 81be 2c4d 8a3e 987d 8fbe 35a7 9a3e
000003c0: ed2d 5bbe 80a8 8f3c bfdd 05be 0896 dc3d
000003d0: 1ffa af3e 113a 2a3d 4dd5 f13d 574f 4cbe
000003e0: 32c8 e9b9 0c50 893d 920d 67be 7e76 fa3d
000003f0: f98d 7f3e c368 0b3e 5b0e cf3d cf94 69be
0.14695856 0.25157335 -0.17210925 0.014307317 -0.36188984 -0.069681145 -0.008367469 -0.05305496
0.008898078 0.17150576 0.24164739 -0.1897373 -0.17676757 -0.2840069 0.16700043 -0.10341569
-0.033724394 -0.049957972 -0.05524023 -0.120452724 -0.18533882 0.09268606 -0.12543887 0.3394792
0.21779351 -0.08242408 -0.10701369 0.06837378 -0.007426335 -0.1847942 -0.071283005 -0.123762354
-0.44648096 -0.3942759 -0.07856335 -0.2067722 -0.32202202 0.27864924 -0.18426141 -0.23213749
-0.21529059 -0.14351034 0.14150788 -0.011738509 -0.16329858 0.10138552 -0.110646166 -0.33452755
-0.0133668035 -0.15876876 -0.09183266 -0.020498535 -0.0629956 -0.039685074 -0.09291408 0.2262607
0.09697907 0.044087976 0.36692753 -0.12087399 0.10158818 -0.020093497 -0.040318176 0.15502524
-0.2098772 -0.20273869 -0.039476614 -0.14020261 -0.10246565 0.040631916 -0.2317643 0.04452555
-0.35922444 -0.29122967 -0.22753486 0.24276239 0.25305223 -0.11798102 0.005715528 0.00506814
-0.23565593 -0.38904968 0.04861883 -0.017455729 0.04691998 -0.08050108 -0.019125307 -0.41012523
-0.08475599 -0.23435661 -0.066577815 -0.04668542 -0.20113811 0.2412896 -0.29626065 0.06902887
0.28385112 0.08492618 0.061970625 -0.19937386 0.06848987 0.08933329 -0.14448147 0.28303003
-0.19765922 -0.16415153 -0.03608008 0.0009554344 -0.006402646 -0.09455395 -0.03868143 -0.29902452
-0.18733172 -0.26122993 0.003908022 -0.049025323 -0.38448068 -0.010466214 0.29253715 0.28941643
-0.11075891 0.08885529 -0.024621457 -0.08685855 0.07868872 -0.43762547 0.14069837 0.042531323
0.05516744 0.10328134 0.0004491724 -0.18605551 -0.06895791 0.07698021 -0.1255811 0.12664968
-0.06452211 0.041273043 0.08077797 0.03614214 0.06557244 -0.023805285 0.069259554 0.1817013
-0.009889697 0.1408783 -0.066097416 0.10644902 0.12103113 0.15291786 0.15538941 -0.32494015
0.050609965 0.23072506 -0.01944675 -0.1850269 -0.031337753 0.25503802 0.19840382 -0.15573694
0.1921581 -0.16257699 -0.0097685745 0.08669108 0.119046606 -0.32051295 -0.07207709 -0.09807944
-0.13663222 -0.20931132 0.18693095 -0.15503915 -0.14644167 -0.39566624 0.13257872 -0.3186675
-0.03771583 -0.1040483 -0.43684286 0.17400861 0.19370139 -0.42462477 0.20703374 -0.44260895
-0.38736537 -0.1315249 -0.008925001 -0.17246622 0.10046349 -0.1303283 0.08480369 -0.17669402
-0.21725768 -0.029513234 -0.083478026 -0.022293853 0.010340521 -0.070271544 -0.27867594 0.29735604
-0.15989886 -0.30435583 0.042242795 -0.12494882 -0.08747684 0.11314285 0.19666532 -0.09548449
0.045835376 -0.03455891 -0.13915643 -0.072873496 -0.1554934 -0.005875786 -0.10878588 0.23907605
-0.22278135 -0.17669077 -0.21405782 0.22041062 -0.034620445 0.083708964 0.1309634 -0.32876435
0.22240853 0.02023113 -0.16271019 0.21391167 0.00074524205 -0.054422017 -0.24843466 -0.11726046
0.077278204 -0.07756739 0.09930301 -0.24588111 -0.2522629 0.27012002 -0.28025508 0.30205694
-0.21404238 0.017536402 -0.1307287 0.10770804 0.34370515 0.041559283 0.11808262 -0.19952141
-0.0004459038 0.06704721 -0.2256377 0.12229632 0.24956502 0.13614182 0.1011016 -0.22810672

fc2.weight f4 [256, 256]
00000000: 4b22 05be 0c91 8bbd 5b73 073e f00c 83be
00000010: 8eaf c7bd 4775 7dbe 45a3 70bd 2544 96bd
00000020: 2f5a 943e 7f2a 5abc f241 593d 3c8e 34be
00000030: af80 d5bd 49c9 97bd 6370 8fbd b7d3 23be
00000040: 40fd 95be dbe6 12bd dbc9 08be 00f4 5d3d
00000050: 1afc 42be 7bf3 0e3e c3fc e5be 5073 5c3e
00000060: ed4c d23e 7fe3 593e cb24 973e af2b bebd
00000070: dcc3 bc3b 11c9 ce3d 7ada cebd 8fc1 85be
00000080: cb55 d63d 55cb 673c 4906 693e fb38 33be
00000090: d747 ed3b 3587 693d 005e 04be fec5 6ebb
000000a0: 3330 02bd a119 bbbd c048 fcbd f636 72bb
000000b0: f64b 553e 2890 893e 614a 21be 9c8f d9be
000000c0: e6db 963d 1a21 2f3e 2256 b23d 145a 09be
000000d0: 483d c03d fdb7 5abc e48a 1c3e f5ae 1dbe
000000e0: c121 57bd cf3a 133e e4b6 2abc 81bd 053c
000000f0: 10b9 c8be bede a0bd 8d7f 97bd 1c14 003e
00000100: 5093 5b3d 5f22 02be 7720 38bb 1ce7 99bc
00000110: ff9e 563e e0d1 0d3e bb1a 17bd c8f4 b2bc
00000120: 76f1 5ebe dc67 a4be 9836 c3bd e203 3e3d
00000130: e79c aa3d 0fd1 98be 2838 fdbc fc22 b1be
00000140: 26de 2d3d 1c6b 4ebd d951 1e3e ddf7 e0bd
00000150: 781a 863c bca9 b1bd 1744 2bbe 6ed6 a8bc
00000160: a79c 8a3d ee2e ae3d b4ef a0be 1661 0ebe
00000170: a57a 803e a8e8 e9bd 4f23 78bd c286 2bbe
00000180: 2efa 963d 4b52 c5bc 987d 2bbc 9b95 fabd
00000190: 9ed3 98be a0a5 26bd 317f 8ebc efee cbbc
000001a0: 6060 4ebd a404 bdbd 8224 243e ba63 28be
000001b0: 2b87 1b3e 52d2 3c3e 7820 973c d01c 83be
000001c0: fad3 83be cb07 4c3c 4416 42be 8f2c 9d3e
000001d0: 2405 b7bd 1a1e d9bc fc1e 0a3e 63f4 bebc
000001e0: e032 aa3b 83c1 6d3e 2b8b cdbd 61ea dd3d
000001f0: 3ae5 7e3b 4850 c33d 704a f53d 46f9 59bd
00000200: bd47 4cbe 9ec2 30be 2562 ecbe 5eb5 8abd
00000210: ac7a 1d3e fbfe 82bc 200a 5cbe 1aa5 f9bc
00000220: 9b79 2c3d cf0f b53c a1fa 8bbe 6a0e 99be
00000230: d13d 163e ef5b e2bd f795 883d 38c7 673e
00000240: 2eea 2bbd 7fd9 74bd 5145 593e 2626 b73b
00000250: b377 e13c f0a7 283d fe44 48bc a352 5bbe
00000260: d223 e13d 17a6 073e ff40 403e 3576 85bd
00000270: 58e5 86be 699e 6abd 1c3d 213e 1564 f53d
00000280: 97ef 653c c4d2 dd3d 4bda 93bd 30c1 82bd
00000290: 0333 803d 2e2c aeba 22bc 6dbe 6115 39be
000002a0: 39dd 883d 81bd 67be d897 2f3e 8cca 4d3e
000002b0: 39a7 e6bd 8d7e 073d 76b7 26be 1992 4fbe
000002c0: b5a8 79be 43a2 843d 3674 00be 7c56 bbbd
000002d0: 1aab fdbd 363d 513e 4c9a aa3e f503 f3bd
000002e0: 84dc 80be e270 19bd 8e0d a53c 1146 dc3d
000002f0: 4a1f f5bd b68e aabe 4bdd 963e 7c92 1cbd
00000300: d4b2 04bf 90f3 30be a296 2e3e 3429 44bd
00000310: 5205 133c 8f36 b6bc a0f5 5bbe 75b5 06be
00000320: ef9b dfbd 6db4 813d 6665 1a3e 676c e23d
00000330: 8fdc 7ebe 759a e3bd 33b5 06be eaff 33bd
00000340: 2609 e9be ff90 4fbd 5106 11be b654 00be
00000350: f6f3 81bd c302 203e 95ed f7bd 70ac 403e
00000360: cf20 45bd dbc4 a63d 4dfc 2b3e 37ab 0d3e
00000370: 1605 39be 2211 a6be 5e66 10be 94a8 03be
00000380: 4ab0 13bc a142 da3b 1fb1 17be a43e c73d
00000390: 4041 d33d b424 14bd c9c0 063e e22f dabd
000003a0: ee5f 323d eb78 9bbd eb78 3b3e e79d 6abd
000003b0: 9e21 dc3c 6c54 e23d 46c7 74be e423 7cbd
000003c0: 9403 8dbd a931 91bb ac35 fbbd c857 923e
000003d0: fabb 7c3d 7cf3 0bbe 007f bfbc c855 94be
000003e0: 9ef2 513e d556 003e 4b9d 86be 2b80 0bbe
000003f0: 4807 32bc 55b8 6abe d83e 7c3e 378c 93bd
-0.13001363 -0.06814775 0.13227598 -0.25595808 -0.09750281 -0.24751769 -0.058749456 -0.07337216
0.28975055 -0.013315796 0.053041406 -0.17632383 -0.10424935 -0.07411439 -0.07003858 -0.15998732
-0.29294777 -0.035864692 -0.13358252 0.054187775 -0.19041482 0.13960068 -0.44919404 0.21528363
0.41074315 0.21278189 0.29520258 -0.09285676 0.005760653 0.10096944 -0.10100265 -0.26124236
0.104655825 0.014147599 0.22756304 -0.17502205 0.00724123 0.05701371 -0.12926483 -0.003643393
-0.031784248 -0.09135748 -0.123185635 -0.0036959029 0.20829758 0.26867795 -0.1575103 -0.42492378
0.07366161 0.17102471 0.08707835 -0.13413268 0.093866885 -0.01334953 0.15287358 -0.15398772
-0.052522425 0.14377902 -0.010419581 0.008162857 -0.3920369 -0.07854985 -0.07397375 0.12507671
0.053607285 -0.12708424 -0.0028095522 -0.01878696 0.2095909 0.13849592 -0.036890727 -0.021845236
-0.21771798 -0.32110488 -0.09531897 0.04639042 0.08330708 -0.29847 -0.030910566 -0.34597003
0.042448185 -0.050395116 0.1546091 -0.10984776 0.016370043 -0.086749524 -0.16725193 -0.02061006
0.0676816 0.08505045 -0.3143288 -0.13904223 0.2509357 -0.11421329 -0.060580548 -0.16750625
0.07371937 -0.024087092 -0.010466956 -0.12235566 -0.2984895 -0.040685296 -0.017394634 -0.024894206
-0.05038488 -0.09229401 0.16029552 -0.16444293 0.15188281 0.18439606 0.0184481 -0.2560792
-0.25747663 0.01245303 -0.18953806 0.30698058 -0.08936527 -0.026503611 0.13488382 -0.023309892
0.005194053 0.2321835 -0.1003631 0.1083572 0.0038893954 0.09536797 0.119770885 -0.05321624
-0.19949241 -0.1726174 -0.46168628 -0.06772874 0.15378827 -0.015990725 -0.21488237 -0.030474234
0.04210816 0.022102265 -0.27339652 -0.2989381 0.14672019 -0.11052691 0.066692285 0.2263459
-0.041971378 -0.059777733 0.21217848 0.0055892644 0.027522897 0.041175783 -0.01222348 -0.21418242
0.1099316 0.13246952 0.18774794 -0.06516687 -0.2634685 -0.057279978 0.15745968 0.1198198
0.014034173 0.10831216 -0.072193705 -0.06384504 0.0625973 -0.0013288313 -0.23216298 -0.18074562
0.0668282 -0.22630884 0.17147768 0.20096797 -0.11262364 0.033079673 -0.16280922 -0.20270576
-0.24380763 0.064762615 -0.12544331 -0.09147355 -0.12386151 0.20433506 0.33320844 -0.11865989
-0.2516824 -0.03746117 0.020148065 0.107555516 -0.119688585 -0.33312005 0.29465708 -0.038225636
-0.5183537 -0.17280412 0.1704965 -0.047890857 0.008973436 -0.022242812 -0.21480417 -0.13155158
-0.10918414 0.063332416 0.15077743 0.11055832 -0.24888824 -0.11113445 -0.1315506 -0.04394523
-0.45514792 -0.05067539 -0.14162566 -0.12532315 -0.0634536 0.15626054 -0.12105862 0.1881578
-0.04812699 0.08143016 0.16795464 0.13834845 -0.18068346 -0.32434946 -0.1410155 -0.12857276
-0.009014199 0.006660775 -0.1481366 0.097287446 0.1031518 -0.036167815 0.13159479 -0.10653664
0.043548517 -0.07591423 0.18307845 -0.057279494 0.026871499 0.110512584 -0.23904142 -0.061557665
-0.06885448 -0.004430969 -0.122660965 0.28582597 0.061702706 -0.136671 -0.023375988 -0.28971696
0.20502707 0.12533124 -0.2629188 -0.13623111 -0.010865994 -0.2292188 0.24633348 -0.07204478

fc2.bias f4 [256]
00000000: b7a8 b63c b370 febb de2c 68bd 17eb c43d
00000010: 545e 6a3d 22c3 04be 673e 9bbd c865 253b
00000020: d66e f13c 1b00 f2bc 5e15 ca3d 8478 6b3c
00000030: 74a3 28bd 8132 a7bb 7fa1 fabd 1c6c b23d
00000040: 86a8 3c3e d15f bfbd 2ffa 5bbe d06d f23d
00000050: d333 4e3d dfcc d8bd ddd6 05bd 27c0 3abc
00000060: f02a f0bd 198b 383d 9ada c43c 8430 76be
00000070: fac7 63bd e23b 443d f855 2abd e349 fabd
00000080: 9492 c0bc c7e5 edbd 8b90 a5bd 591a 543c
00000090: c657 98ba 1db1 78bd 5859 723d 2f08 a0bd
000000a0: 3fbe b0bd 0502 7abd f3d1 42bd 8964 113d
000000b0: e069 e6bc a95e 9f3d 4eb8 133d b367 9f3d
000000c0: 6c5d 82bd d3cd 38bc ea64 97bc 92f0 4abe
000000d0: c71f 0f3d 7ab1 d03d 8bdd 083e 810e 13bd
000000e0: 75a1 06be f621 55be 3399 533b 54d2 d4bc
000000f0: 965d 00bd 9ff8 7cbd 2a4f 933a f700 2cbd
00000100: cdeb a73d 94d0 213e 681d debd f388 b33c
00000110: 200c 60bd ad63 c7bd 9ae2 c6bd 3ffb 0cbe
00000120: e144 123d 5532 2fbd 4210 0a3c 15be a13d
00000130: fd7a c93c 2ed0 adbc 3ae4 ddbc d074 bcbd
00000140: 24b8 f9bc 2ae5 a73d 7582 993d 8cc6 d4bd
00000150: ae06 12be d65a 363e ce2d 133d bcc8 ae3a
00000160: 9c33 093d f898 eb3d 58b3 71bd 2dab 5cbe
00000170: a25d c3bd 3405 ccbd 8e67 12be 5442 01be
00000180: 62ca fabd c793 98bc d38a 563e a346 743d
00000190: 4380 c03d 632e 8a3c fef7 9abc d3fc 5e3e
000001a0: d15f 63bd f7d6 9a3d 1f5e 2c3e 7c79 c73d
000001b0: 2175 5d3d 3929 d53b 2356 ba3b 1fb5 02be
000001c0: 2269 263e 7acf bc3d 5e9e 013b 90ac 223d
000001d0: 0cf4 b4bd 15aa a13c 79be d7bd c4d6 81be
000001e0: 5b1d 7c3c 91e3 973d bad4 c33d 8267 11bd
000001f0: d686 aabd f371 f9bc ff3f c6bd ba06 0b3d
00000200: 9c1b a2bd 1a77 b7bd 51cb 28be ea99 0fbe
00000210: 7c51 703d 99ad 063e 96a1 c8bd dd38 5b3d
00000220: 0736 0fbe 0acb 903d 9eb0 fe3d 2c3c 32be
00000230: b932 1cbe 7a66 40bd ef48 67be 242e 83bd
00000240: 1e2a 473d 7270 b23d 1a89 1e3c 5ebb 84bd
00000250: fc1d 2dbe 85c7 d1bd 002c 8b3d f579 d9bd
00000260: afc8 e43c 6b52 32be 3dfa bdbd c9b2 0dbe
00000270: c051 763d b861 b63d 5c7f cd3d bfc0 f0bc
00000280: e486 25be d3c4 b53d cb1d 47bd 8846 ccbd
00000290: e639 ff3b f553 4dbd fea1 8a3c 7d4b 0dbe
000002a0: 2226 2ebd 6c41 663c 8a01 a3bd 11e8 33bd
000002b0: f37e ecbd 7c47 173e 885a 103d b5fe 79bd
000002c0: 1a58 d93d 5b52 7f3a 3bf3 ab3d 538d ba3d
000002d0: 01d3 9dbd 20cd da3d ce29 a6bd 3652 35be
000002e0: c793 9dbc bfcb ad3d b673 18bd d0c3 59be
000002f0: aafd 1abe c5a6 1cbc a4b9 bebd 4dfc 65bd
00000300: e722 443e c07c a7bd 375e f33c d2cd 433e
00000310: 776f a03d 9ebe aabd 54d6 993c 1a80 f6bd
00000320: bee6 5a3d 8e9b 3bbd 397c afbd 984a 0b3d
00000330: d1be 853d b7d8 f5bd d3ed ccbb 6aff 273d
00000340: 35de 5bbd 66b5 b63d a20a 043e 10f7 e93c
00000350: eed6 0fbe e0ef 26be b498 05be 5446 c7bd
00000360: 581c 63bc 76cf 3d3e 39c8 ec3b 9ded 1abc
00000370: af58 bebc d695 a2bd b1e0 35be 6f79 27be
00000380: 61b0 22bd d51e 483c 1771 6abe 7336 af3d
00000390: 6d3a 8ebc d610 fb3c 4b02 e93c a358 4b3c
000003a0: 363a 76bd e124 1fbc f018 383c 46e2 de3d
000003b0: e38a 54bd df4b 02bc 2e23 43be 137e 35bc
000003c0: 6ca3 1bbe a413 d4bd 881c 5bbb 62f7 b2bd
000003d0: 6f5b 8f3c f994 a9bd 9e20 343d b134 3e3d
000003e0: ea74 f8bd 8242 afbb 1507 86bd 237b 5dbd
000003f0: 9210 e8bd 3040 ac3d f47a a63d 77aa 26be
0.022297246 -0.0077648996 -0.056683414 0.09615152 0.057218865 -0.12965062 -0.07580262 0.0025237668
0.029471796 -0.029541066 0.09867357 0.014371995 -0.041171506 -0.005102456 -0.12237834 0.087120265
0.18423662 -0.093444474 -0.21482156 0.11837351 0.050342392 -0.10585951 -0.032675613 -0.011398352
-0.1172694 0.04505453 0.024030019 -0.24041945 -0.055610634 0.04790867 -0.041585892 -0.12221124
-0.023507394 -0.11616092 -0.0808421 0.012945735 -0.0011622838 -0.060715783 0.059167236 -0.07814061
-0.086300366 -0.061037082 -0.047563504 0.03549627 -0.028126657 0.07781727 0.03606444 0.07783451
-0.06365475 -0.011279541 -0.018480737 -0.19818333 0.034942415 0.10190101 0.13365762 -0.035902504
-0.13147528 -0.20813736 0.0032287359 -0.025979199 -0.03133925 -0.06176054 0.0011238803 -0.041993108
0.08199272 0.15802222 -0.108454525 0.021915888 -0.054699063 -0.097358085 -0.097111896 -0.13767718
0.03571022 -0.04277261 0.008426728 0.078975834 0.024594778 -0.021217432 -0.027086366 -0.09201968
-0.030483313 0.081980065 0.07495586 -0.10389432 -0.1426036 0.17808089 0.035932355 0.001333497
0.033496484 0.11503786 -0.059008926 -0.21549673 -0.095393434 -0.0996193 -0.14297315 -0.12622958
-0.12245633 -0.018625153 0.20951395 0.059637677 0.09399464 0.016867822 -0.01891708 0.21776132
-0.0555113 0.075605325 0.1683278 0.09739968 0.05406678 0.0065051583 0.005686538 -0.12764405
0.16251042 0.092192605 0.0019778232 0.03971535 -0.08835611 0.019734422 -0.10534377 -0.25359166
0.015387858 0.07416452 0.09562059 -0.035499103 -0.08326499 -0.030449843 -0.09680175 0.03394196
-0.07915422 -0.08958264 -0.16483809 -0.14023557 0.05867146 0.1315216 -0.09796445 0.053521026
-0.13985454 0.07069977 0.12436031 -0.17405766 -0.15253724 -0.04697273 -0.22586416 -0.06405285
0.04862415 0.087128535 0.009676242 -0.0648105 -0.1690597 -0.102431335 0.06795502 -0.106189646
0.027927725 -0.17414252 -0.09276245 -0.13837732 0.060136557 0.08905357 0.100340575 -0.029388783
-0.16164738 0.08875432 -0.048612397 -0.0997439 0.0077888845 -0.050128896 0.016922947 -0.13798328
-0.042516835 0.014053684 -0.07959278 -0.043922488 -0.11547651 0.14773363 0.035242587 -0.061033923
0.10612507 0.000973975 0.08396002 0.09108987 -0.077062614 0.10683656 -0.08113442 -0.17707142
-0.019235505 0.08486127 -0.037219726 -0.21266103 -0.15135828 -0.009561245 -0.09312752 -0.056148816
0.19153939 -0.08178091 0.029708011 0.19121483 0.0783376 -0.083371386 0.018778957 -0.12036152
0.05344271 -0.045802645 -0.085686155 0.034006685 0.06530536 -0.12004226 -0.006253937 0.041015066
-0.05367871 0.08921318 0.12894681 0.028560191 -0.14046833 -0.16302443 -0.13046533 -0.09730211
-0.013861738 0.18536171 0.007226017 -0.0094560655 -0.023235647 -0.07938735 -0.17761494 -0.16354917
-0.03971899 0.012214382 -0.22894703 0.08555307 -0.017361844 0.030647676 0.028443476 0.012411269
-0.060114108 -0.009713382 0.011236414 0.10883002 -0.051890265 -0.007952659 -0.19056389 -0.011077422
-0.15199059 -0.10355309 -0.0033433754 -0.08738591 0.017499654 -0.082803674 0.04397642 0.04643697
-0.121316746 -0.0053485045 -0.065443195 -0.05407251 -0.113312855 0.0841068 0.0812892 -0.16275965

fc3.weight f4 [2, 256]
00000000: bc10 02bd fb88 d6bd 3675 58bf 4a91 d03e
00000010: 054f c23e c7af e5be 0512 b1bb a2cf bbbe
00000020: 1ad2 53be 9340 1f3f 0921 a73c f638 b23e
00000030: 7bcd 1a3e 6147 df3e 6fd5 da3d 6ebc f43d
00000040: 9e58 023e 8836 3f3d da3e a8bf 4fc4 fd3d
00000050: a1a8 453e 12c4 15be a78b f9be d432 0e3e
00000060: d5a9 dbbc 447b 893e d2df 113b 0bf4 00bd
00000070: e9cf 1d3f 9368 87be aa26 b33e 5aff c53e
00000080: 7bf9 4ebd ca73 063e 7912 34be c0f0 e5bd
00000090: 1c7d e93c 3683 033f c432 62bc 3530 cc3e
000000a0: fc29 703e fdd4 2d3c 526f f63e afc7 423c
000000b0: 483e 193e 7e29 343d d835 1fbf c595 d3bc
000000c0: 34de 9abd 31fa 9c3e 9154 8ebe 6d9f a4bd
000000d0: b70e 863c def4 0d3f 7721 fdbc 5ddb 49be
000000e0: c6dc 873e 42b1 56bc 8b1b 5abe 25df 37be
000000f0: 50ab a03e 4f64 b23e 82a1 8c3e ab1c 6b3e
00000100: d9dd d1be 9aa8 cf3c e5d3 2fbe cac7 ddbb
00000110: bbf1 813e 752e bdbe 7897 80bb 7d00 9abc
00000120: d03d 8cbd b5f2 a53e c7b7 f93b 2608 9abd
00000130: 9b2e 613c 8050 8cbd a7d5 073e 193e 16bd
00000140: ab0e dbbd fbce 22bf 34e4 463e d51b c93d
00000150: 3e67 acbe 5095 d23d c3e4 92be 7fc6 98bd
00000160: 0f66 733e 1a41 013f e220 ce3d 7425 bfbd
00000170: ae47 3f3e 69a8 df3e adf7 87bd 39d5 88bf
00000180: 6410 bfbe 2b98 dd3e 4a92 aa3e 4b2b 3fbd
00000190: f566 d93d 8dc9 20be 133c 94bd 0480 be3d
000001a0: 2d34 993e 4910 403d db53 2a3d 6cfc 2ebe
000001b0: 23aa 27be 2f77 3f3e 22bc 013e 2203 48be
000001c0: dc18 dc3c c137 9c3c 6585 9f3c 1343 373a
000001d0: acc8 53be 1cd4 d73d 689f 023f d90c 60be
000001e0: 030a bfbe 33b3 573e 4e6c d83d f962 50be
000001f0: ed83 653b 1be0 7fbe 11fa 6cbf 42fa a73c
00000200: fbd6 76be 788d eabc 3e55 2b3e 74ce a03e
00000210: 5bfb 18be 8e01 653e c2b8 11bc 4d8d 343d
00000220: ccb8 703e 3851 bd3e 8a23 3c3e a34b 5abe
00000230: 9b93 373a ce72 b8bd 3c0a 30bf 8540 333d
00000240: e504 e53d dda4 c43e a56f a2bd 1d64 88be
00000250: a65f b4be 2b6b c13c be18 e73d fd0d 55be
00000260: ef06 1f3d e0ae 16be 8e9e 9f3d eeab 893e
00000270: 6f0d 8bbe 06b9 713d bbf4 f23b 280e 84bd
00000280: 7ff9 c4bc 91c4 0ebf 99a2 1dbf 9863 db3d
00000290: 7a1b d7be 15ed 903e 4342 23bd 05a1 d63c
000002a0: bb63 f4bb 1dff c93d 7798 b03e b6d9 eabc
000002b0: a722 80be ddc0 603d 8754 a3bd 104d 02be
000002c0: 4c73 4f3d ae33 af3e e358 5e3e 9999 263e
000002d0: 853c b0be 71f2 0c3e 8790 edbd d97c b33e
000002e0: d91f 093e 5869 423d 2808 87bd bba4 25be
000002f0: 9e71 633f b04d 50be 7ff8 273a da74 613b
00000300: 049f 333e 6a95 a6be 2aea a93d 97af 333e
00000310: e024 f03d 3fcd 69be aeda 403e c9d8 20bf
00000320: 167d 6fbd d77a 2ebf 7f64 7ebe 7748 ad3e
00000330: f305 d1be b695 d3bd 005d 10bc c453 643d
00000340: 98ec e93c 0b52 0fbf 3e48 c43e bf5a 59be
00000350: 1428 253f eecd efbe 936b 4a3e f3e8 9dbe
00000360: fc00 b03d f61e 0b3e 40de cabc b209 e5be
00000370: 281f 91be 8e0f 57bf 8ae7 cbbd 5e7a 0bbf
00000380: 7309 bf3e 04f8 09bc fc7e 5cbd 6152 853d
00000390: 8510 acbc c4b6 f7bc 32e5 813c 7fc9 4b3e
000003a0: fbaa 6ebe 299c 83be c66d 573e 1419 983e
000003b0: fd54 813d 995c 8f3d 352d 04be aa5f afbc
000003c0: af62 f2bc 18d3 7dbe 43a6 b33e e178 8a3f
000003d0: 6462 6f3d 3f2c 7fbe 64d2 833e 9fab 903e
000003e0: a480 a0be 0eff 3bbf b3e4 8dbd c874 483f
000003f0: f461 2abf 3d27 653b ea68 a13e ef2b 00be
-0.03175424 -0.10475346 -0.8455385 0.40735847 0.37950912 -0.4486067 -0.0054037594 -0.3668185
-0.20685616 0.6220791 0.020401495 0.34809083 0.15117447 0.43609145 0.106852405 0.119500026
0.12729117 0.046682864 -1.3144181 0.123909585 0.19302608 -0.14625576 -0.4873936 0.13886577
-0.02681438 0.26851857 0.0022258651 -0.031482738 0.6164537 -0.2644697 0.34990436 0.3867138
-0.050530892 0.13130108 -0.17585172 -0.1122756 0.02850204 0.51372087 -0.013806049 0.3988053
0.23453516 0.010609862 0.48131806 0.011888429 0.14965165 0.043984883 -0.62191534 -0.025828252
-0.07561913 0.3065963 -0.27798894 -0.080382206 0.016364438 0.5545176 -0.030899746 -0.19712587
0.26535624 -0.013103785 -0.2129957 -0.17956217 0.313807 0.34842154 0.2746697 0.22960155
-0.4098957 0.02534895 -0.17170675 -0.0067682015 0.25379738 -0.36949506 -0.0039243065 -0.018799061
-0.06847727 0.32411733 0.007620785 -0.075210854 0.013744022 -0.06851292 0.13265096 -0.036680315
-0.10696157 -0.6359708 0.1942299 0.09819762 -0.33672518 0.10282385 -0.28690156 -0.07459735
0.23769401 0.5048996 0.10064866 -0.093333155 0.18679687 0.43683174 -0.06639037 -1.069007
-0.37317193 0.43280157 0.33314735 -0.046672147 0.106153406 -0.15701886 -0.07238021 0.09301761
0.2992262 0.04689053 0.041583877 -0.17088479 -0.16373496 0.18697809 0.12669423 -0.19532445
0.026867323 0.019069554 0.019472787 0.0006990891 -0.20682019 0.105385035 0.51024485 -0.21879901
-0.37312326 0.21064453 0.105675325 -0.20350255 0.003502126 -0.24987833 -0.9256907 0.020505074
-0.24105446 -0.02863191 0.16731736 0.3140751 -0.14939635 0.22363874 -0.008894147 0.044080067
0.23507994 0.36976027 0.18372932 -0.21317916 0.0007002891 -0.09006272 -0.68765616 0.043762702
0.11182574 0.3840703 -0.07931451 -0.2663888 -0.35229224 0.023610672 0.11284016 -0.20806117
0.03882497 -0.14715147 0.07793914 0.26888984 -0.27158687 0.059014343 0.007414428 -0.064480126
-0.02404475 -0.55768687 -0.6157623 0.107123554 -0.4201315 0.2830588 -0.039858114 0.026199827
-0.007458178 0.09863112 0.3449132 -0.028668266 -0.25026438 0.05487143 -0.07975107 -0.1272471
0.050647065 0.34219116 0.21713595 0.1626953 -0.34421173 0.13764359 -0.11599832 0.3505619
0.13391055 0.047463745 -0.065933526 -0.16176121 0.8884524 -0.20342135 0.0006407573 0.0034401924
0.17541128 -0.3253587 0.082966164 0.17547451 0.11725783 -0.22832201 0.1883342 -0.6283079
-0.0584689 -0.6815619 -0.24843024 0.3384435 -0.4082485 -0.103312895 -0.008811235 0.055743948
0.0285552 -0.5598456 0.38336366 -0.21226023 0.6451428 -0.468368 0.19767599 -0.3084179
0.08593938 0.1358603 -0.02476418 -0.4473396 -0.28344083 -0.8400811 -0.09956272 -0.5448359
0.37311897 -0.008420948 -0.05383204 0.06509853 -0.02100397 -0.030238517 0.01585636 0.19901083
-0.23307411 -0.25705078 0.21037969 0.29706633 0.06315038 0.070000835 -0.1290787 -0.02140792
-0.029588072 -0.24787557 0.35087785 1.0818139 0.058443442 -0.24919222 0.25746453 0.28255937
-0.31348145 -0.7343606 -0.069283865 0.78303194 -0.66555715 0.0034966015 0.31525356 -0.1251676

fc3.bias f4 [2]
00000000: e8d6 d03c 3a5d 37bc
0.0254931 -0.011191661
