checkpoint_critic.pth (torch_old, 292814 bytes, 5 tensors)

fcs1.weight f4 [256, 24]
000000 78 bb 31 3d 2a 4b d0 bb 0f 53 ca bc 4b a1 66 3a
       0.043391675 -0.0063566165 -0.024697809 0.0008797838
000010 c0 10 2b 3e 5c c9 63 bd 12 69 8a 3c d5 e5 78 ba
       0.16705608 -0.055611953 0.016895805 -0.0009494697
000020 f7 ac fc 3c 77 93 9a 3c 28 b5 e5 bb 04 5c fc 3c
       0.030844195 0.018869145 -0.007010121 0.030805595
000030 fa c9 9b bd 55 a1 0d 3e f5 58 f5 3a 6e f4 df bc
       -0.07606883 0.13831075 0.0018718528 -0.027338233
000040 6d 2b ec 3d 20 b0 57 bd 0a 84 f0 3c 69 41 25 3d
       0.1153172 -0.0526582 0.029359836 0.040345583
000050 66 a4 b6 be ca e8 b6 3e 72 26 1d bd ff 21 7e bc
       -0.356723 0.3572448 -0.038366742 -0.015511035
000060 e1 71 12 be 3d a3 e1 3d d8 00 76 3b 3a 5d 10 ba
       -0.14301254 0.11017463 0.0037537124 -0.0005507056
000070 8d b4 ce 3d b1 29 87 bd 90 36 49 bc bd 90 6f bb
       0.10093031 -0.06599749 -0.012281075 -0.0036554777
000080 df 96 12 bd 14 8c cc 3d 6a 9a 42 bd 10 ef 16 3d
       -0.035788413 0.09987655 -0.047510542 0.03684908
000090 d4 81 77 3e 95 fb 3d be c2 21 c2 bb e6 7c 5c bc
       0.24170619 -0.18553002 -0.0059244344 -0.0134575125
0000a0 49 78 04 bd cc 50 14 3e 74 5a 76 bd 86 1e 1a 3d
       -0.032341275 0.14483947 -0.060144857 0.037626766
0000b0 1e 88 76 3e de 78 11 3e d4 d3 97 bc f2 90 7c 3d
       0.24075362 0.14206263 -0.018533625 0.061661668
0000c0 18 d8 a6 3d 53 f7 17 bd 93 c5 16 3c ab 81 8e bc
       0.08146685 -0.0371011 0.009202379 -0.017395815
0000d0 2b 36 a9 bc 4b 98 58 bf 24 7c ad bb 25 6c 18 bc
       -0.020655712 -0.8460738 -0.0052943397 -0.009303127
0000e0 05 1d ae 3d e1 36 fe bd 7d ef 31 3b 08 ce af 3b
       0.08501629 -0.12412811 0.0027150803 0.005365137
0000f0 68 f3 bf bd 6c de 15 bf 79 95 8d 3c c8 0f a1 bc
       -0.09372598 -0.58542514 0.017283188 -0.019660845
000100 1b 58 16 3d 6d 1f 81 3d 68 d1 0b bd 72 92 2f 3c
       0.036705118 0.06304822 -0.034135252 0.010716068
000110 7c cd 6f be c7 b4 ea 3e 9f d8 be 3c 4c 1b b8 3d
       -0.2341823 0.45841047 0.023296652 0.089895815
000120 0f 8d 14 3e 0e dd 2a be c9 2b 2d 3a 4b 96 e4 3c
       0.14506935 -0.16685888 0.0006605951 0.027903697
000130 a9 9d d4 3d bf 45 70 be 3d 5e 20 bc bd f8 39 3d
       0.10381634 -0.23464106 -0.009788093 0.04540323
000140 52 53 dd 3d 2e ac 21 be 19 d1 27 bd 19 a0 67 bc
       0.10806908 -0.15788338 -0.040970895 -0.014137291
000150 fb 6b 0e 3e ba d5 01 be 33 54 b6 bd 08 a0 86 3c
       0.13908379 -0.12679186 -0.089027785 0.01643373
000160 9a bc 05 3e 33 da 60 be e0 b3 a2 bd ff 8e 69 bd
       0.13060227 -0.21958236 -0.07944465 -0.057021137
000170 ab da 8a 3e b3 27 33 3e 10 35 3e bd a9 27 16 3d
       0.27119955 0.17495613 -0.046437323 0.036658917
000180 93 4c 32 bd 31 b0 27 bd 2b 09 29 3d 98 20 a7 3c
       -0.043530058 -0.040939514 0.04126851 0.020401284
000190 89 08 5a 3e f3 fe 59 3e 0f 47 1a bd 5d f9 81 bd
       0.21292318 0.21288662 -0.037665423 -0.063463904
0001a0 2d 79 25 3d 9d dc f0 bd 5f fd ea 3c 73 fb be bc
       0.040398765 -0.11760829 0.02868527 -0.02331326
0001b0 ea 91 6f 3e f0 c9 23 be fe 70 03 bd 15 3d 27 bd
       0.23395506 -0.15995002 -0.03209018 -0.040829737
0001c0 1f a4 31 bc 02 62 62 be 0e 98 c5 3b 5f c7 17 3d
       -0.010842352 -0.221077 0.006030089 0.03705537
0001d0 4b 95 b5 be 5c 1e 28 be 34 d4 79 3c 44 75 d7 bc
       -0.35465464 -0.16417831 0.015248347 -0.026301034
0001e0 3c 45 be bc 9e 18 cd 3e 43 f8 01 3d 54 a3 56 bd
       -0.023226373 0.40057844 0.0317309 -0.052401856
0001f0 8a 6d 2a 3d 0d 2b 27 3d a5 e5 2b 3c ec b4 8e bd
       0.04160837 0.04081254 0.010491763 -0.06968102
000200 60 81 24 3d e5 6e d9 3e bb 51 3f 3d fd c0 26 3d
       0.040162444 0.42467418 0.046708804 0.04071139
000210 da 44 ec b9 df 39 8e bd 54 e8 9c bd bd 0f 93 3c
       -0.00045064726 -0.06944632 -0.076615006 0.01795184
000220 5b 00 b7 3d cf 4b d9 3e 78 a5 05 bc 09 8f fc bd
       0.08935615 0.4244065 -0.008157127 -0.12331969
000230 bd 6a 19 bc a7 26 04 bf 70 8e fe bc 62 21 01 bd
       -0.009363827 -0.5162148 -0.031073779 -0.031525977
000240 8b c1 05 be 3a 2f ff bd 03 b7 22 bb 78 0a 1d 3d
       -0.13062112 -0.124601796 -0.0024828322 0.038340062
000250 a3 fa 0e be 67 d7 40 be 1a f9 47 3c c2 36 50 bd
       -0.13962798 -0.1883217 0.0122053865 -0.05083347
000260 ef 01 44 bd 29 0d fe bd 69 43 bc 3c f3 87 54 bd
       -0.047853407 -0.12404854 0.022981362 -0.051887464
000270 a9 ae a4 3c 6e 34 3d bf d8 25 2b 3b 7b 6d 49 bd
       0.020102816 -0.73908126 0.0026115086 -0.049176674
000280 e5 c9 08 be 0a 3f ee bd 87 ac cc bc be f9 85 bc
       -0.13358267 -0.116331175 -0.024984611 -0.016354438
000290 eb 9d 76 3e 16 7f 8b bd 45 20 b7 3c ae e0 df bb
       0.24083678 -0.06811349 0.022354254 -0.006832204
0002a0 67 7b a2 bc ee f3 35 3d 9d 84 3f bc 27 cc 6d 3d
       -0.019834233 0.044422083 -0.011689332 0.058056023
0002b0 fb a2 2e 3e dc 46 5a 3e 91 e9 bf bb b7 be 50 3d
       0.1705436 0.21316093 -0.0058567007 0.05096313
0002c0 3b ae 05 3e d8 09 c9 3d 52 d6 8a bc ed 73 1b bd
       0.13054745 0.09816331 -0.016947899 -0.037952352
0002d0 9a 07 67 3d f8 d2 f9 3d 96 2a e0 3c e4 e5 ac bd
       0.056403734 0.12198442 0.027364057 -0.08442286
0002e0 7c e5 15 3e 8f d9 10 3e 3b f2 34 3a f0 43 2b 3e
       0.14638323 0.14145492 0.000690255 0.16725135
0002f0 1c 9a 22 be 30 df fb bd 1a 5c 84 bd 76 2b 20 3e
       -0.158791 -0.12298429 -0.064628795 0.15641579
000300 9e 5e 04 bd 16 cd 2e bd f3 31 94 3b 64 b3 29 bc
       -0.032316796 -0.042676054 0.004522556 -0.010357711
000310 55 a9 a2 be e5 44 ba 3e 7b bf 15 ba 94 45 1c 3d
       -0.31769815 0.36380687 -0.0005712432 0.038152292
000320 12 8f 9b 3c 12 41 1b 3d 57 b4 f2 bc 5e 42 14 3c
       0.01898912 0.037903853 -0.029627008 0.009049026
000330 1f b4 c0 bc 6b 37 2c 3e 56 4f 3e 3c 16 42 54 bd
       -0.023523388 0.16818015 0.011615595 -0.051820837
000340 ee d6 d0 3d c8 f1 9f 3c a4 85 4b bd c1 d1 67 bc
       0.101972446 0.01952447 -0.049687997 -0.01414913
000350 69 94 83 3e ac 83 52 be 3e c3 4d 3d 17 ae e3 3c
       0.25699165 -0.20558041 0.050235026 0.027792973
000360 b3 8c e7 3d 78 95 c1 3d cb 4c 2d bc 8e 82 b1 3c
       0.11306133 0.09452337 -0.010577391 0.021668699
000370 13 2a d1 3d 68 08 75 3d 30 44 e8 ba 2e 05 c3 bc
       0.10213103 0.05982247 -0.0017720517 -0.02380618
000380 35 75 f7 3d f2 11 de 3d 2f 9e 5d bc 92 46 e7 3c
       0.12082902 0.108432665 -0.013526483 0.028231893
000390 05 b3 0b 3c 06 16 af 3d d2 31 e9 ba cc 93 12 3c
       0.008526568 0.085491225 -0.0017791337 0.00894637
0003a0 0b 85 0e 3e 16 96 43 3d e9 a5 64 bd ba 72 53 3e
       0.1391794 0.047750555 -0.055822287 0.20649233
0003b0 27 70 0c be 85 93 51 3c 31 5b 6c 3d 98 0b 13 3e
       -0.13714658 0.012791519 0.057704154 0.14359891
0003c0 e1 4a 8a 3e d9 cd 84 3b f2 d7 a9 3c cf c9 4d bd
       0.27010253 0.0040528593 0.020732854 -0.050241288
0003d0 42 df 4b bd e1 28 5c 3e 52 51 e9 bc ad 68 2d ba
       -0.049773462 0.21499969 -0.02848116 -0.0006615024
0003e0 8a 4d 68 3e fb 4b 22 bc 1e f3 4d 3b df 8a d7 3d
       0.22685829 -0.0099058105 0.0031425427 0.105245344
0003f0 3b 9d d7 bd 4c 93 8c 3d 5c a8 b0 bc 7d e9 e0 3c
       -0.10528036 0.06864032 -0.021564655 0.027455086

fcs1.bias f4 [256]
000000 d5 e3 a7 bd ad 48 6f 3c ec 01 46 be 3f 2e a8 bb
       -0.081977524 0.01460473 -0.1933667 -0.005132466
000010 85 9b a0 bd 66 0c 90 bc 47 03 cd 3c 04 1a ee bd
       -0.07842163 -0.017584037 0.025025977 -0.11626056
000020 31 72 90 3e 6e 28 2c be 8c c8 d0 3d 9f c6 93 be
       0.2821212 -0.16812298 0.10194501 -0.28862473
000030 f9 c3 66 be 3e 6d c1 be 79 9c 15 3d 5d 25 ea bd
       -0.22535695 -0.37778658 0.036526177 -0.11432908
000040 0f 04 92 be c5 7b bc ba e6 38 1d be 02 36 77 be
       -0.2851872 -0.0014380148 -0.15353736 -0.24141696
000050 aa 87 bf be 4f e5 3b 3e 0a f7 30 3c c5 38 12 3e
       -0.3740819 0.18349193 0.010801086 0.14279468
000060 11 1d 6e bd b1 ae 31 3e c3 ab 97 be b3 05 9b be
       -0.05813319 0.17351796 -0.2962323 -0.30277786
000070 ed 3c c4 3d aa ab 94 bc 69 eb 9d be d4 4b f0 bd
       0.09581933 -0.018148262 -0.30843666 -0.11733213
000080 15 f8 a9 be 95 f5 2d be 87 cc 38 be 4c a6 39 be
       -0.33197084 -0.16988213 -0.18046771 -0.18129843
000090 9d cd d5 be 44 e0 36 3e 1b 99 9d be c1 77 46 be
       -0.41758433 0.17858988 -0.30780873 -0.1938162
0000a0 08 d6 b3 be be 84 96 bd 5d b1 da bd 9d ab bc be
       -0.3512423 -0.07349537 -0.106783606 -0.3684968
0000b0 91 61 b6 be ac 32 57 be 05 b1 87 3e 60 51 00 be
       -0.35621312 -0.21015424 0.26502243 -0.12531042
0000c0 3b 18 8d be 9e de 94 3d 34 c3 7a bd 25 ee 85 be
       -0.2755755 0.07269023 -0.061221316 -0.26158252
0000d0 96 94 74 be 45 a9 8b be 8a 80 22 be 75 e5 44 3e
       -0.23884806 -0.2727758 -0.15869346 0.19228156
0000e0 b0 b1 f1 bd 8d 3e 86 3d d1 94 76 3d f4 cf 3f be
       -0.11801469 0.06554899 0.060200516 -0.18731672
0000f0 79 ca 98 bb c7 c3 9f 3e eb f6 f5 bd 48 67 70 3d
       -0.0046628085 0.31204054 -0.120099865 0.058692247
000100 05 33 72 be 63 80 01 bf 1e a5 53 be b0 fc a5 bd
       -0.23652275 -0.5058653 -0.20668456 -0.08104837
000110 91 20 49 be 7f 3f b9 3c f6 06 26 bd ff aa ee 3d
       -0.1964133 0.022613285 -0.040533982 0.11653709
000120 4a 74 cb bd d3 57 b9 bd 02 28 c6 be a6 da 91 3e
       -0.0993429 -0.09049954 -0.387024 0.28487128
000130 a8 19 e5 bd 30 fe c8 bd 4c 5c 37 bd aa c6 81 3d
       -0.11186534 -0.098141074 -0.044765756 0.0633672
000140 97 95 0d bf 82 7f 08 be 27 11 d2 bd 0f e4 8a be
       -0.5530638 -0.1332989 -0.10257178 -0.2712712
000150 6e 65 db 3d 52 83 8f be 20 16 56 3d d5 8b e5 be
       0.107127056 -0.28029877 0.052267194 -0.44833246
000160 f6 63 d5 be f4 f6 ef bd c3 ee 01 be f0 28 d6 bc
       -0.41677827 -0.117170244 -0.12688737 -0.026142567
000170 ba 11 85 be 69 4e e5 3d 90 51 84 be 32 2e 52 3e
       -0.25990087 0.11196596 -0.25843477 0.20525435
000180 9d 8a 49 3d e4 e4 be 3d 9b 28 c6 3e 4e 60 06 be
       0.049204458 0.09321001 0.38702855 -0.13122675
000190 0d 2c 04 be c1 39 9d 3d 50 a1 01 be 7d cd 61 3d
       -0.12907429 0.07677031 -0.12659192 0.05512761
0001a0 33 5f da be 03 0a 31 be 9f 68 2b 3d 5a 18 1a be
       -0.42650756 -0.17288975 0.04184782 -0.15048352
0001b0 f2 6e 9a be 39 5a cc be 9e bb 94 3d 9b 5d 4e be
       -0.3016277 -0.39912584 0.07262348 -0.20152895
0001c0 f6 bb a2 be 8c 98 ad be 64 6d 81 3d 5e 4c c1 be
       -0.31784028 -0.33905447 0.06319693 -0.37753576
0001d0 e2 ef 30 be 56 f8 9a be d6 ce c4 3e 5d 78 88 be
       -0.17279008 -0.3026759 0.38439053 -0.2665433
0001e0 d6 e6 03 3e 2a b5 d2 3c 8d ec 5f be d5 0f 9a bc
       0.12881026 0.025721151 -0.2186758 -0.018806377
0001f0 2d b7 cb bd 29 64 a7 bd 80 08 11 3e a7 bc cd bc
       -0.099470474 -0.08173401 0.14163399 -0.02511437
000200 ba b4 ed 3d ff 78 39 3e a5 6a a3 bb 42 75 a3 be
       0.116067365 0.18112563 -0.0049870783 -0.31925398
000210 8e fc 77 bd 1b 60 13 be de e9 5e be d6 ac 2e 3d
       -0.06054359 -0.1439213 -0.21768901 0.042645298
000220 a3 08 7e bd 8d 1b a6 bd b8 35 c9 3d af 58 fa 3d
       -0.062019955 -0.08110724 0.09824699 0.12223946
000230 41 71 d0 bd d9 c4 d7 3d df 10 b4 3d 35 41 e0 bd
       -0.101778515 0.105355926 0.087922804 -0.10949937
000240 6f 5d 38 3d d4 4d ea 3b 09 4f 1b be 3b c1 32 be
       0.04501098 0.007150391 -0.15166868 -0.17456524
000250 6e 72 6f be 55 bc a7 3d ee cd 4d 3e 41 25 89 be
       -0.23383495 0.08190218 0.20098087 -0.26786235
000260 1e a3 9d bc c4 db e8 bc d9 2b 98 bd 6c 8a fe bd
       -0.01924282 -0.028425105 -0.07430238 -0.124287456
000270 e7 70 ba 3d f3 42 19 3e 30 f4 a0 bb 13 b7 5f bd
       0.09103566 0.14966945 -0.004911922 -0.054617953
000280 5e 57 57 be 1d 44 47 be 6b ca 4e be 9d 0c 58 3d
       -0.21029422 -0.19459577 -0.20194404 0.052746404
000290 ad 80 05 3e b5 fa 88 be 5b 26 12 be 88 10 81 be
       0.13037367 -0.26753774 -0.14272444 -0.25207925
0002a0 1b a9 0f be 8d 25 a5 be 31 ca 72 3e 6e 98 00 be
       -0.14029352 -0.3225521 0.23709942 -0.12558147
0002b0 cf 62 9c bd ad 67 48 be 14 06 cb 3d f1 cd 41 be
       -0.07636034 -0.19570799 0.09913269 -0.18926217
0002c0 7d b5 b7 bc 46 13 d4 bd 75 e4 1d be b7 f0 ce 3d
       -0.022425408 -0.103552386 -0.1541918 0.101045065
0002d0 d5 b8 95 3c dd 6e 8c be e1 ff b5 bd a0 4f cc be
       0.018276611 -0.27428332 -0.08886696 -0.399045
0002e0 27 f6 7a be 88 24 9f bd 5e 2c 49 be 23 2e 2f 3d
       -0.24507962 -0.0777064 -0.19645831 0.04276861
0002f0 f5 e3 bb 3b ec 03 a4 be 69 29 65 3d f2 64 c7 3d
       0.0057339617 -0.32034242 0.055947695 0.09736051
000300 07 e7 7a bd 32 c7 a0 be 0c d2 20 be 1d 15 a4 be
       -0.06125548 -0.31401974 -0.15705127 -0.32047358
000310 23 e2 3b bc aa 0c ca be 2d a4 54 be a2 8c 47 3e
       -0.011467489 -0.39462787 -0.20765753 0.19487241
000320 e8 8f a9 be 2d c2 df be 95 e3 e9 bd 59 01 1e be
       -0.33117604 -0.43702832 -0.11420361 -0.15430202
000330 51 85 63 be a1 e6 8d 3d 03 94 f8 bc 83 89 69 bc
       -0.22218825 0.069287546 -0.030344015 -0.014253977
000340 3f 28 ed 3d ab cc aa bd 07 70 8d bd 23 4b d2 3d
       0.11579942 -0.083398186 -0.06906133 0.102682374
000350 ae ca 55 be e2 68 91 be 0e 08 a6 bd 8a c6 52 bd
       -0.20878097 -0.28400332 -0.08107005 -0.051458873
000360 c6 b1 66 be 79 73 8f be 70 34 c3 be 54 b1 75 bc
       -0.22528753 -0.28017786 -0.38125944 -0.014995892
000370 51 ac 1f be 8e 75 58 bd c2 a8 05 be 1d 85 76 be
       -0.15593077 -0.052846484 -0.13052657 -0.24074216
000380 9d b9 4c be 1f fb e9 3d f7 f4 33 be b5 6f ab bd
       -0.19992681 0.11424851 -0.17573915 -0.08370916
000390 c9 5b 2e be fc a6 86 bd 93 9d 05 be d2 05 27 bb
       -0.17027201 -0.065748185 -0.13048391 -0.0025485647
0003a0 64 81 45 be 08 74 69 be 02 df a7 bb 58 b7 c5 bd
       -0.1928764 -0.22798169 -0.00512302 -0.09654111
0003b0 49 fc 1c be c1 cc 4f 3e 30 aa a6 be 2f a5 10 3e
       -0.15330614 0.20292951 -0.32551718 0.14125513
0003c0 cd 8b cf bd 1c 6d af bb 4b 00 a0 be e2 af 33 be
       -0.10134087 -0.005353583 -0.31250224 -0.17547563
0003d0 28 c7 22 3e 7f 3d a6 bd d0 f5 2c bd 6d 5c 9b bd
       0.15896285 -0.08117198 -0.042226613 -0.07585988
0003e0 47 79 60 be 31 86 21 3d 57 5f a5 be 14 af 9e bc
       -0.21921264 0.039434616 -0.322993 -0.019370593
0003f0 d0 a2 8b bc f7 57 33 3e 0d 34 6b be 57 17 94 be
       -0.017045408 0.17514025 -0.22969075 -0.28924057

fc2.weight f4 [256, 258]
000000 8d 00 9b be 1e 4b cc bc 11 32 8e bd 10 b1 3b bd
       -0.30273858 -0.024938162 -0.06943143 -0.045823157
000010 d1 eb 1d 3d d6 f3 97 bd a8 e0 a0 3d 79 23 42 bd
       0.03855497 -0.07419555 0.0785535 -0.04739711
000020 e8 18 ca bd 2a 8b cb bd d9 df 85 bd 29 92 18 bd
       -0.09868032 -0.09938653 -0.06536836 -0.037248764
000030 ba b3 7d 3d 18 b8 5d be 4f f4 c0 3c d7 cb da 3d
       0.06193898 -0.21652257 0.023553995 0.106834106
000040 b4 47 4e 3c 06 99 5f be 71 bf b8 bc e0 8a de bc
       0.012590338 -0.21835718 -0.022552224 -0.02716583
000050 0e 56 20 3d ed d8 21 be d0 b8 3d 3d bb 2d 31 bd
       0.03914457 -0.15805407 0.04631883 -0.043256503
000060 b0 ca 44 3d 41 ba 2b 3d fe 6b 46 3e 1f 21 dc bd
       0.04804486 0.041925672 0.19377133 -0.10748505
000070 6b 48 25 be 08 ef 1c be c8 2a 45 3d a0 10 1f 3d
       -0.16140907 -0.15325558 0.048136503 0.038834214
000080 44 d8 0e bd 84 52 d5 bd 94 78 9c bd d2 79 4f 3d
       -0.034874216 -0.10416129 -0.07640186 0.050653286
000090 87 7e 1c 3d 55 bd cd 3b 3b 30 8e bd bc 31 21 bd
       0.038206603 0.0062786737 -0.06942793 -0.03935407
0000a0 a1 5e de bc 5d 81 02 bd d9 83 f6 bd e5 1b 9f bc
       -0.027144732 -0.03186165 -0.12036867 -0.01942248
0000b0 b2 d9 f1 bd b4 86 10 bd a2 5b a0 3d 98 aa 0a be
       -0.118091 -0.035284713 0.078299776 -0.13541639
0000c0 fe 85 73 bd 20 97 4b be 27 bb 16 be 93 64 0a bd
       -0.059453957 -0.19881868 -0.1471983 -0.03378732
0000d0 83 71 75 be 3f d2 a9 3d 97 5d 70 bc 47 a7 90 bd
       -0.23969083 0.082920544 -0.014670751 -0.070631556
0000e0 fc 3c 93 3c 8a 77 d6 be 72 e0 4b bd f6 3f a5 3d
       0.017973416 -0.41888076 -0.049774595 0.0806884
0000f0 10 bc 79 be 0a 0c 6b bd be c6 91 3d b2 c7 3c be
       -0.24388146 -0.05738453 0.07117985 -0.18435553
000100 7a 36 e2 bd 44 3e a8 be 73 2c 13 be fe cf 08 bd
       -0.11045547 -0.32860005 -0.14372425 -0.03340148
000110 f6 e1 a5 bc a5 bb 92 bc 12 c9 a9 bd 91 8a 0b 3d
       -0.020249348 -0.017911742 -0.08290304 0.034067694
000120 2e a1 c8 bd 20 38 65 bc 40 78 cf 3d 9b bd 16 3e
       -0.097963676 -0.013990432 0.10130358 0.14720766
000130 cc 32 10 be 4b 4c 35 3d 15 5c c7 bb 92 aa 73 bc
       -0.14081877 0.04426221 -0.006083975 -0.01487221
000140 70 21 18 be 7e ec 0c be 95 f9 86 bd 36 54 7b 3d
       -0.14856505 -0.1376209 -0.06590573 0.061359607
000150 04 cd c2 be 88 97 3b bd ed 48 00 be f2 2e 51 be
       -0.3804704 -0.04579881 -0.12527819 -0.20428064
000160 69 0b 47 bd 08 55 e0 bd 3f 3a bc 3c 9e 71 91 be
       -0.048594866 -0.109537184 0.022976993 -0.28406996
000170 3e 7c b5 bc c7 97 0b be b2 5f 0b bd 5d c9 c6 3d
       -0.02215397 -0.13632117 -0.03402681 0.09706376
000180 20 0a d0 be 40 4e f7 bc fc 50 79 3d 73 69 04 bc
       -0.40632725 -0.03018868 0.06086825 -0.008081782
000190 b6 16 41 bd f5 e0 da bd 64 36 3a 3d ce 07 a2 3d
       -0.0471408 -0.106874384 0.045462027 0.07911645
0001a0 3e 36 18 be 9a 03 91 bc 4f ac 92 3d 25 f2 88 bd
       -0.14864442 -0.017701913 0.071617715 -0.066868104
0001b0 20 31 04 be 95 1b 18 be 49 ef c5 3d 61 c9 54 3d
       -0.12909365 -0.14854272 0.09664781 0.051949862
0001c0 1e 35 ab bd cb b8 fc 3c df 96 d4 bc ed fa 2c be
       -0.08359741 0.030849835 -0.025950847 -0.16892596
0001d0 bb b1 36 bd 7e 40 bc bd 3f 12 fe 3b 8d 05 79 bd
       -0.04460309 -0.091919884 0.00775364 -0.06079631
0001e0 30 67 a9 3d e1 1e 5a bd 8f 09 b5 b9 09 d9 3e be
       0.082716346 -0.053252105 -0.00034530132 -0.1863748
0001f0 14 51 3d bd 22 b1 2a bd 60 80 06 bd 0b 82 1d 3d
       -0.0462199 -0.041672833 -0.03283727 0.038454097
000200 de 91 76 be 0b 83 8a be cd 2a 2e bd cc 17 7c bc
       -0.24079081 -0.27053103 -0.042521287 -0.015386533
000210 a2 bf f4 bd c5 10 88 bd 95 7c 6a be ad 75 21 be
       -0.119506136 -0.066438235 -0.22899087 -0.15767546
000220 e7 78 07 be e4 17 89 bd d3 3a 8c bc 6b ed 37 3d
       -0.13229714 -0.0669401 -0.017117893 0.044904154
000230 3b e4 1b be e4 98 21 bd 81 e4 72 bc 9d f3 ec 3d
       -0.15223782 -0.03945245 -0.014824987 0.11569903
000240 80 80 92 bc d2 fa 96 3d a1 ec 6b bd 06 a4 97 bc
       -0.01788354 0.07372059 -0.057598714 -0.01851083
000250 f8 da 7a 3c e1 04 73 bd 37 e8 08 bd 5c 4a f4 3c
       0.015310995 -0.059330825 -0.033424582 0.029820614
000260 72 51 b3 bc 88 1b a9 bb 3a 1e 70 bd 43 bd 7f 3c
       -0.021889422 -0.0051607527 -0.058622576 0.015609088
000270 f3 33 8e be bb 74 32 be ae 0a 55 be ab e2 cf bd
       -0.2777401 -0.17427342 -0.20804855 -0.10150655
000280 53 32 24 3e b7 66 9e bd 4c c6 d1 bd 0b 28 cf bc
       0.16034822 -0.07734435 -0.102429 -0.025287649
000290 50 92 51 3d 64 a5 72 3d e3 53 5e be 97 15 38 bd
       0.051164925 0.05923976 -0.21711688 -0.044942465
0002a0 68 1e 7f 3e c9 09 e7 bc 6b 49 19 3e c1 fb 59 3c
       0.24913943 -0.028202908 0.14969413 0.013304652
0002b0 64 f9 f0 bd b5 68 1a 3e 02 e8 43 be 23 a1 95 bd
       -0.117663175 0.15079005 -0.19131473 -0.07306125
0002c0 af 3f 9d 3d b8 48 d7 3d 2f f7 3c bd 11 ed 53 3d
       0.07678162 0.10511917 -0.04613417 0.051739756
0002d0 47 e9 7a bb 43 53 04 be 6f ec 35 bd 1c a2 bd 3d
       -0.0038286017 -0.12922387 -0.044414934 0.092594355
0002e0 8c 42 48 be 6d be 01 bd 60 3b 83 3b e9 87 3a be
       -0.19556636 -0.031675745 0.004004881 -0.18215908
0002f0 30 1e c3 3c 72 1d 16 bd 76 4f 1f bc 44 e5 5a bc
       0.023818105 -0.036649175 -0.009723535 -0.013360325
000300 66 9e 72 be 2b 38 0f be 38 ae 4d bd c3 f9 0b be
       -0.23693237 -0.1398627 -0.050214976 -0.13669495
000310 ce e1 ab be 6b 9f e3 bc 07 4f ca bd 89 f8 58 3c
       -0.33570713 -0.027785977 -0.098783545 0.013242849
000320 05 eb 5a 3d 1d ec 7d be 5a 57 51 39 76 9f bf bd
       0.05344679 -0.24797101 0.00019964334 -0.09356587
000330 7d df 11 3b 2e c2 0d be 3f 06 19 be 5d 70 08 be
       0.0022258454 -0.13843605 -0.14943789 -0.13324113
000340 e0 a6 16 be ce d7 9e bc 0f a7 0d bd 7f d7 e0 bd
       -0.14712095 -0.019390013 -0.034583148 -0.109786026
000350 8e b5 54 bd 2c 2b ac 3c bc ff e4 bd f3 e5 81 bd
       -0.051930957 0.02101668 -0.1118159 -0.063426875
000360 d4 d1 83 be 87 6c 54 bd fa a6 63 3d c3 aa 3b 3e
       -0.25746024 -0.051861312 0.055579163 0.18326859
000370 86 c9 9e bc 60 a3 ee 3c 2d 06 7c bd 57 6c d1 bd
       -0.019383203 0.029130638 -0.061529327 -0.10225742
000380 90 b7 62 bd aa da 28 bd cf 17 0b bd 59 9c f9 bc
       -0.05535084 -0.04122416 -0.033958253 -0.03047006
000390 74 63 83 bd 7b 56 36 bd 38 6d b4 bd c1 0e 31 bd
       -0.064154536 -0.044516068 -0.08809894 -0.04322696
0003a0 62 25 a0 3d 69 c7 01 be 88 f8 62 bd a7 fd 46 bd
       0.0781963 -0.12673725 -0.0554128 -0.048581745
0003b0 9a 3c 14 3c 9c 0e 33 bd 89 86 78 be d0 9e d5 bc
       0.009047652 -0.043715104 -0.24270071 -0.026076704
0003c0 47 4b cc bb 19 2d c2 3d 04 56 71 bc dc b8 49 3c
       -0.0062345597 0.09481258 -0.01472998 0.01231214
0003d0 6d 25 bd 3d 14 e5 44 bc f4 2f 0a 3e aa 32 b3 bd
       0.09235654 -0.012017507 0.13494855 -0.08749898
0003e0 dd a5 ae bc b4 4e b3 bd 8f b1 a6 be 4e a0 7e bd
       -0.021319324 -0.08755246 -0.3255734 -0.062164597
0003f0 d8 72 11 bd 77 d2 d9 be d5 8f 85 bd 60 94 3f 3d
       -0.035509914 -0.42543384 -0.065215744 0.04677236

fc2.bias f4 [256]
000000 dc 24 22 3c d2 37 d1 bd ec dc 80 bd c2 1f 49 be
       0.009896483 -0.10215725 -0.062921375 -0.19641021
000010 f6 cb 15 be 9a d7 b4 bc 08 c3 cc bd d9 f7 3a 39
       -0.14628586 -0.022075463 -0.09998137 0.00017830673
000020 2d ff 21 3d bc c1 21 bc b2 52 92 3c cf e8 86 3c
       0.039549995 -0.00987285 0.017861698 0.016468434
000030 e4 1b 62 bd d9 88 9a bb 2e d3 51 bd 00 51 b2 bd
       -0.05520238 -0.0047160205 -0.051226787 -0.08706856
000040 b5 b7 e8 3a 35 99 23 3c c2 65 14 3e 5c c8 ee bc
       0.0017754944 0.009985258 0.14491943 -0.029148273
000050 01 d7 69 bd 37 83 c8 bd d0 db 26 bd ba c2 a1 be
       -0.05708981 -0.09790652 -0.040736973 -0.31593877
000060 97 36 5d bc 6a 63 fd 3c 56 94 a6 bd 02 bf 86 bc
       -0.013501785 0.030931193 -0.081337616 -0.016448501
000070 fe bb eb bd 88 0b 87 bd 59 f0 2d 3d 80 4f 43 3d
       -0.11510466 -0.06593996 0.04246554 0.04768324
000080 20 94 f0 bd de a2 99 3c a8 af 91 3d 14 80 d2 bd
       -0.117470026 0.018754419 0.07113582 -0.10278335
000090 64 4b 01 bd e1 5d 7a bd da 80 b1 bc 23 06 07 bd
       -0.03156604 -0.061124686 -0.021667887 -0.032964837
0000a0 12 87 89 3d 9b fb 8b bc 04 1b 64 bc fd b7 25 be
       0.06715216 -0.017087748 -0.013922457 -0.16183467
0000b0 17 02 bc 3d ff ef 14 3d a4 78 f5 bd fd 08 0a be
       0.09180086 0.03636169 -0.11985901 -0.13479991
0000c0 39 35 62 bd ba ad a2 bd f6 2b 27 be 43 d4 a3 bc
       -0.05522654 -0.07943292 -0.16325364 -0.019998675
0000d0 96 e9 bb 3b 5d d1 35 be 2a 4e 4f bd ef 14 8a 3c
       0.0057346327 -0.17755647 -0.050611652 0.016855685
0000e0 a7 5f 3e 3b 10 6a 29 bd c0 b8 45 bd 88 2c 1c bd
       0.0029048712 -0.041360915 -0.048271894 -0.038128406
0000f0 20 74 f0 bd 8a a9 3a 3d 35 86 2d be 28 c5 59 3d
       -0.11740899 0.04557184 -0.16945727 0.05316654
000100 b8 aa ad 3d 27 42 a7 bd 6d 60 08 bd 92 cc bf bc
       0.08479828 -0.081669144 -0.033295084 -0.023412976
000110 30 35 f9 bd 19 a4 99 bc 0c 4a ac bd ba c4 7b bd
       -0.12168348 -0.018755006 -0.08412561 -0.06146691
000120 d0 45 48 bd 33 0d a9 bd d1 ff aa bc 3a 31 7c bc
       -0.048894703 -0.08254471 -0.020873936 -0.015392596
000130 be e8 84 bb 9d 94 29 bd ac 19 9e bc 33 c4 b1 ba
       -0.0040560653 -0.041401494 -0.01929935 -0.00135625
000140 a2 3d 77 3d 7e 36 52 bd 43 3f 0b be 2d f3 96 bd
       0.060361512 -0.0513215 -0.13598351 -0.07370601
000150 0a 0b 7f 3d 97 35 be 3c 6f 08 39 be 7c 97 02 bd
       0.062266387 0.023218913 -0.18069623 -0.031882748
000160 ec ef 04 bd ca a1 b7 bd a3 5a 7e 3c 1d 18 31 bd
       -0.03245537 -0.08966406 0.015524539 -0.043235887
000170 27 a1 0d bc 6e 6a f4 ba 6e 35 ab bb 3d 6f 6b bd
       -0.008644379 -0.0018647441 -0.005224875 -0.057479132
000180 3a d2 40 bc 9b b8 f3 bc ad aa 89 bc c3 51 80 bd
       -0.011768872 -0.029751113 -0.016805017 -0.06265595
000190 0c 16 2b be 9e 6f 57 bc d4 a2 7a bd 8f d0 68 bd
       -0.16707629 -0.01314917 -0.06119044 -0.056839522
0001a0 40 56 18 bd ec 37 7f bd e8 a3 a4 3c 3a 51 45 bd
       -0.03719163 -0.06230919 0.020097688 -0.048173167
0001b0 9a 99 18 bd 14 02 95 bd e0 16 b0 3c d7 77 04 3d
       -0.03725586 -0.07275787 0.021495283 0.03234085
0001c0 86 5a 99 bb fa df aa bd ce f7 f2 bb 5b 6a a6 3d
       -0.0046799807 -0.083435014 -0.0074147945 0.081257544
0001d0 f9 5e c1 3b 2d 75 99 bd ce c9 36 bd 38 05 f0 bb
       0.005901214 -0.07493053 -0.04462605 -0.007324841
0001e0 16 b3 1e be 39 fa 2f 3c 4e 16 cc bb 2c 93 a3 3c
       -0.15498003 0.01074081 -0.006228245 0.019967638
0001f0 27 3d 48 bd ff f1 30 be db 2f 5b bd 7e 10 df bc
       -0.048886444 -0.17279814 -0.053512435 -0.027229544
000200 90 74 27 3e 0f 43 77 ba f7 bc 9c bb 57 8a 97 3c
       0.16353059 -0.0009432295 -0.0047832686 0.018498583
000210 50 7b 08 3c ae f2 cf 3c bf a2 d6 bb 50 6d 84 3d
       0.008330181 0.025384273 -0.0065501626 0.06466162
000220 e4 73 07 3d 06 61 f2 bc fe 77 ef bc fd 87 a4 bd
       0.033069506 -0.02958728 -0.029232021 -0.0803375
000230 79 68 6f bd b7 7c 79 bd 08 f5 ef 3b 39 2a 89 bd
       -0.058449242 -0.060909953 0.007322911 -0.066975065
000240 43 58 9b bd 74 1a 29 3d 72 87 27 3e bc 92 b2 bd
       -0.07585194 0.041284993 0.16360262 -0.087193936
000250 04 ee cf bb 79 09 3f 3e 0a a2 9c bd 55 41 a8 3c
       -0.0063455123 0.18655957 -0.07648094 0.020538965
000260 f3 a1 aa bd 10 f2 5b 3e c2 95 ab bc 65 f3 0b bd
       -0.083316706 0.21479058 -0.020945434 -0.034167666
000270 7d d9 cd 3c 3b 3b 02 3e 16 ba 34 bd 3e d8 ab bb
       0.02512812 0.12717907 -0.044122778 -0.005244284
000280 e1 8d 7e bd 2c 60 a1 3d 42 8a d9 bc 98 19 2a bd
       -0.062147025 0.078796715 -0.026555184 -0.041528314
000290 0c 64 91 3c 13 a7 bb 3b d0 03 15 3d f2 fb 2f bd
       0.017747901 0.005726704 0.03638059 -0.042964883
0002a0 72 d2 7f bc de 27 92 3b b3 b8 8b bc 09 bd e8 ba
       -0.015614139 0.004460319 -0.017055845 -0.0017756532
0002b0 7a af 51 bd a8 52 82 bd d0 8e da bc f6 87 2f bd
       -0.051192738 -0.06363422 -0.026679426 -0.04285427
0002c0 e1 34 02 3b 14 63 07 bd 0c 0f 42 bd b3 c3 cc 3d
       0.0019867944 -0.033053473 -0.04737763 0.09998264
0002d0 d8 51 d2 3d 40 cc d5 bd 3c e4 71 bd f8 c1 9b 3c
       0.10269517 -0.10439348 -0.059055552 0.01901339
0002e0 5b 0d aa bd cd 7b 5d bd 90 37 49 be dc 01 e9 3c
       -0.083033286 -0.054073144 -0.19650102 0.02844327
0002f0 a7 38 fb bc 30 94 53 bd bf c1 af bd 79 7c fb bc
       -0.030666662 -0.051654994 -0.08581876 -0.030699002
000300 d9 9f 1d bd 33 a7 ac 3d 24 bb 8c bd 3d a0 54 3d
       -0.03848252 0.08430328 -0.06871632 0.051910628
000310 db 80 10 3e ee 1a fd bc a8 a8 e3 bc be 06 12 be
       0.14111654 -0.03089663 -0.027790383 -0.14260384
000320 87 c9 d6 bb c3 9a a5 bd 2b de b4 bd 4a b0 f6 3c
       -0.0065547857 -0.08086159 -0.08831438 0.030113358
000330 fa 99 94 bd 85 f8 9c bd 11 2c bc bd 0f 61 6f 3e
       -0.07255931 -0.07664589 -0.091880925 0.23376869
000340 03 9e f1 bb c7 bc ab bc 5b b2 04 ba 0b 3d 44 bd
       -0.007373573 -0.02096404 -0.00050619774 -0.047909778
000350 cc 94 d3 3b 83 5d 85 bd c0 ba 71 bd 1c d2 83 bd
       0.006456947 -0.065119766 -0.05901599 -0.064365596
000360 3d 89 3e bc 72 1b 19 ba 80 fe 0a bd 97 cd 86 3e
       -0.0116294 -0.00058405765 -0.033934116 0.26328728
000370 2a 9b 52 bd 7b 47 00 3d 08 b6 d0 bd b5 7a f4 bc
       -0.051417507 0.03131817 -0.1019097 -0.029843668
000380 cd 47 75 bd 76 ec 30 bd e7 26 89 3c d3 b9 4b bd
       -0.059882928 -0.043194257 0.016742183 -0.049737763
000390 5a 4f 1d be 34 2b 69 3d 6c e4 96 bc d8 aa 88 bc
       -0.15362301 0.056925967 -0.018419467 -0.016683027
0003a0 97 93 c7 3c f0 30 fe 3b 42 84 d9 3d be 6e c6 bb
       0.024362369 0.0077572986 0.10620929 -0.006055682
0003b0 41 2c bd bd 6a 1a ac bd 7c e0 ad bd b5 09 99 3c
       -0.092369564 -0.084034756 -0.084900826 0.018681386
0003c0 a5 1c 13 bd 5a 02 1b bd 9c 88 66 be 50 b1 3e be
       -0.03591599 -0.03784404 -0.2251305 -0.18622327
0003d0 78 91 60 bd 00 54 fd 3c ff 97 98 bc 01 c8 b8 bc
       -0.05482623 0.030923843 -0.018627165 -0.022556307
0003e0 c4 09 d8 bc 78 a3 f7 3d d2 9a d4 bd 0c fd 29 bc
       -0.026371844 0.12091726 -0.10381092 -0.0103752725
0003f0 ad 58 3d bd 07 58 4e bd 66 c9 fa 3c 84 9c 23 3e
       -0.046227146 -0.05037692 0.030613612 0.15977675

fc3.weight f4 [1, 256]
000000 3b f9 81 be 7d a2 d9 3d b9 f1 bf 3d f5 8c ba bd
       -0.2538546 0.10626695 0.09372277 -0.09108917
000010 02 8f 45 3d 7d c5 5e be 9b 1d 00 3d 74 28 29 3d
       0.048232086 -0.21755023 0.031278234 0.041298345
000020 a4 1d 52 bd 85 b3 20 3b 16 02 02 be 44 b1 47 3b
       -0.0512978 0.0024521064 -0.12696108 0.0030470649
000030 92 c2 42 bb 49 07 b6 3d cc 67 79 bb 01 03 c4 bd
       -0.0029718024 0.08888108 -0.0038056253 -0.095708854
000040 10 97 2f 3d 18 a7 84 3d 86 37 9a 3d f2 5f a2 bd
       0.042868674 0.06477183 0.075301215 -0.07928456
000050 f3 d8 19 3d 07 e6 9a bd 6b db ba bd 7b af 41 bd
       0.037560415 -0.075634055 -0.09123882 -0.04728649
000060 4c b0 28 3c d0 7c b5 3c 06 31 47 3b 58 72 dd bd
       0.010295939 0.022154242 0.003039421 -0.10812825
000070 4e f6 c1 3c e2 6f 2e 3b b8 58 37 bd d0 ee ab 3d
       0.023677018 0.002661698 -0.044762343 0.08395159
000080 f4 53 76 bd ed 67 14 3c 0b e1 e4 bc 2e 6e 73 bc
       -0.060138658 0.009057981 -0.02793934 -0.014857812
000090 38 bc 96 bd 5e eb 19 ba 02 90 28 3b be f7 01 bc
       -0.07360119 -0.0005871559 0.00257206 -0.0079326015
0000a0 31 45 49 3d e1 11 25 3c 46 38 b4 bd 56 0a e7 3d
       0.04913825 0.010075063 -0.08799796 0.11281268
0000b0 8f 3c dc 3d a3 57 28 be 6b 2c 81 3c c1 f7 f2 3c
       0.10753738 -0.16439681 0.01576825 0.029659154
0000c0 a0 96 d5 3c 4e 52 ad bd 0a ca 53 bd ea f1 95 bb
       0.0260728 -0.08462964 -0.05170635 -0.0045759575
0000d0 99 32 c6 3b 58 e4 c6 bc 1a 29 39 3e 73 2e 58 3c
       0.006048512 -0.024278805 0.18082085 0.013194668
0000e0 64 26 08 bd 67 bc 83 3c dd 27 f2 bd 44 85 58 bd
       -0.033239737 0.016081048 -0.118240096 -0.052861467
0000f0 62 7f ca bd 19 b8 12 3d cd 58 25 be e6 2d 3b 3e
       -0.098875776 0.0358201 -0.16147156 0.18279228
000100 65 1b c1 3c a6 8a 83 3b a4 40 0e 3d 41 ae 03 3d
       0.023572633 0.004014331 0.034729615 0.032148603
000110 7e d7 4c 3e 14 5d 9c bd 43 76 b5 3b a4 08 4c bb
       0.20004079 -0.07634941 0.0055377795 -0.003113308
000120 0b 43 67 3b 80 61 13 bb 48 28 93 bb 43 16 a9 bd
       0.0035287763 -0.0022488534 -0.004490886 -0.08256199
000130 93 f1 99 bd a8 39 9d 3d 05 46 2b 3d e4 38 18 bd
       -0.0751678 0.07677013 0.041814823 -0.03716363
000140 cb ee 5f 3c 6d 02 28 3d 9c d5 01 be ae e5 44 ba
       0.0136677725 0.04101794 -0.12679142 -0.00075110316
000150 d9 1c 25 bd 14 de d2 bd a6 d0 83 bd a9 95 52 bd
       -0.040310714 -0.10296264 -0.06436281 -0.05141226
000160 a6 8e 98 bd 24 c6 5f bb 4b 7c ec 3d 89 51 a1 3c
       -0.07449083 -0.00341452 0.115471445 0.0196922
000170 dd 05 26 b8 9b e2 24 3e 7d e6 29 bb 59 19 f2 ba
       -3.9582945e-05 0.16102068 -0.0025924735 -0.0018470689
000180 41 ad ca bd 41 ff 44 39 99 3c 8b bd d3 d3 29 ba
       -0.09896327 0.00018787106 -0.067986675 -0.00064784026
000190 78 e8 b9 bc eb 05 2c 3b de f2 43 38 3b 28 31 bc
       -0.022693858 0.0026248645 4.671781e-05 -0.010812814
0001a0 0c 0b 8c 3d 03 81 a6 ba a8 6f 9b 3d 17 f2 5f be
       0.068380445 -0.0012703243 0.07589656 -0.21869694
0001b0 6d 57 56 3d ab bf 24 3d 02 c4 d9 3d 94 5e c2 3d
       0.05232947 0.04022185 0.10633089 0.094906956
0001c0 64 35 f5 ba f0 07 c8 bd b3 81 0e be 83 29 3f be
       -0.0018707928 -0.09767139 -0.13916664 -0.18668179
0001d0 ad d2 b9 bc 67 d2 56 bb ac 78 1c bd ca bf 8f bd
       -0.022683466 -0.0032779218 -0.03820102 -0.07019003
0001e0 4c 13 64 be 7f 7e a7 3d 13 34 b1 3d ac d8 b3 bd
       -0.22272986 0.08178424 0.086525105 -0.08781561
0001f0 ba 48 25 be 66 66 b4 bd 80 a7 41 3c a1 52 9c 3d
       -0.16141024 -0.088085935 0.01181972 0.07632948
000200 77 65 87 bd 73 69 a1 3d 1e 28 d2 bd 64 96 1f be
       -0.0661115 0.07881441 -0.10261558 -0.15584713
000210 ca 7a 00 bb 07 96 08 be f8 fb 3f 3d a5 3d a5 3d
       -0.0019604438 -0.13338481 0.046871156 0.080683984
000220 e7 54 bc 3d 26 f9 82 bc c5 0d 43 3d 4f 4b 2d bd
       0.09195881 -0.015987944 0.047620554 -0.042308148
000230 ed 1a 98 be d4 ff 83 bb ed 6a 61 bd 28 6d 95 bd
       -0.29708043 -0.0040283 -0.055033613 -0.072962105
000240 4c 91 af bb 3a eb 36 bd 3b cc c3 3c e4 7a a8 bc
       -0.005357897 -0.044657923 0.023901096 -0.020566411
000250 4a ed 74 bd 80 b4 0e 3d 07 83 0b be d6 b7 11 3c
       -0.05979661 0.034840107 -0.13624202 0.008893928
000260 a2 b3 1f ba 53 66 0c 3d ac 35 bf 3d f4 55 15 3d
       -0.0006092136 0.03427727 0.09336409 0.036458924
000270 2b 8c 95 3c 80 2d 8d 3c 23 a0 6d bd 32 1c 4e bd
       0.018255314 0.01723361 -0.058014046 -0.050319858
000280 09 0a 13 3d cc 8a 80 3c 1b 01 b8 3d 82 02 20 3d
       0.035898242 0.015691184 0.08984586 0.03906489
000290 54 8a 9c bb 3f b2 c6 3c c4 22 50 3b 32 94 21 3b
       -0.004777232 0.024254916 0.0031759003 0.0024654982
0002a0 65 ae e2 3c 68 a6 f2 bd ea fb 99 3d 26 dd a0 3d
       0.027671048 -0.11848146 0.07518752 0.07854681
0002b0 4b 81 86 3a f7 4e 0a 3d a1 b0 e3 bc 2a 43 89 bb
       0.0010261921 0.033766713 -0.027794184 -0.004188915
0002c0 ab 77 b5 3d 0b 37 e2 3d 1d 9d 15 bd 2a 46 0c 3d
       0.088607155 0.11045655 -0.036526788 0.0342466
0002d0 31 d9 3c 3d 20 23 8a bc b9 ce 2c bd da fe 11 bd
       0.046105567 -0.016862452 -0.042189334 -0.035643436
0002e0 20 7c 58 3a 53 35 61 bd 8c 7e 8c bd 05 bc c6 bd
       0.0008258242 -0.054982495 -0.068600744 -0.09703831
0002f0 a4 f3 5c 39 39 91 0c 3e d8 00 cb ba 12 75 11 bb
       0.00021071598 0.13727273 -0.0015487922 -0.0022195023
000300 90 46 57 3d 7f 98 07 bd 25 14 fa 3a 68 53 8e be
       0.052557528 -0.033104416 0.001907949 -0.2779801
000310 9b 33 4b bd bf f6 46 3d 0e 03 92 be c2 b6 eb 3b
       -0.04960976 0.04857516 -0.28517956 0.0071934173
000320 dc 26 56 be c1 7c b0 ba 58 cd aa bc 1e cd 95 3d
       -0.20913261 -0.0013464914 -0.020849869 0.073145136
000330 ea f2 ba 3d e4 0c 54 39 3c 2d ba 3c 95 d7 37 3d
       0.091283634 0.00020222698 0.022726648 0.04488333
000340 0d 1e 75 3c 8a 95 fd bb 1d a7 f5 3c b3 b9 64 bd
       0.014960778 -0.0077387737 0.029986912 -0.05584116
000350 15 3a ac be f0 95 de 3d 15 78 cc 3d 45 4f 84 3b
       -0.33638063 0.10868442 0.09983841 0.00403777
000360 cd b3 57 3d de b1 85 3b d8 75 fa bc 6d e2 9a bd
       0.052661706 0.0040800413 -0.03057377 -0.075627185
000370 d9 7c ab bd 64 ba b4 3c c3 22 0b be 81 18 38 3e
       -0.08373422 0.022061534 -0.1358748 0.17978097
000380 fe 6e 21 bd 1c 3c c8 bc 99 15 3d 3d 7a 7a 32 be
       -0.03941249 -0.024442725 0.046163175 -0.17429534
000390 8c c8 d1 3c 41 20 41 bd 19 91 c1 bd af ad d3 3d
       0.025608324 -0.0471499 -0.09451503 0.10335862
0003a0 3d a1 e5 3d 6e 86 9a 3d 1b d4 fc 3c bc 07 4a 3b
       0.112123944 0.07545172 0.030862859 0.0030827364
0003b0 5f 0a 1b 3e e4 0c b4 b9 56 61 ed 3a 46 93 cb bd
       0.15140675 -0.0003434188 0.0018110673 -0.099401996
0003c0 ed 81 44 bb c3 d6 a2 b9 e5 60 db bd 96 8b 80 3d
       -0.0029984668 -0.00031059058 -0.107118405 0.06276624
0003d0 59 34 1e be b8 b3 78 bd 16 1b 94 3d d0 bd 45 bd
       -0.15449657 -0.06071827 0.07231729 -0.048276722
0003e0 cd ec d3 3b 6d fc ef 3c 09 ac 86 ba 36 1a 9d 3b
       0.006467438 0.02929517 -0.0010274659 0.0047943844
0003f0 45 d2 7e 3a ac 60 6f 3b cc 78 79 3c 19 b4 3d 3d
       0.00097206637 0.0036526127 0.015226554 0.046314333
